django_project/uploads/core/model_epoch_99.pth (torch_old, 239912 bytes, 8 tensors)

conv1.weight f4 [64, 1, 5, 5]
0.18787524 0.060076736 0.09990699 -0.12162149 -0.25701746 0.054467868 -0.27752668 -0.10594063
-0.13834159 -0.33544728 -0.25906608 0.12545364 0.018496817 0.041924346 0.06701625 0.0755963
-0.0037498842 -0.06968615 0.026628017 -0.123204365 -0.39857638 -0.031286106 -0.06791403 0.005886425
-0.28512394 0.018057186 0.013604052 0.0006441693 -0.15067571 -0.21273966 0.10949396 0.124654286
-0.1362728 -0.17543058 -0.07950546 0.08214105 -0.15435268 -0.25156796 -0.06232643 -0.30068123
0.2317392 0.10483256 -0.32455498 -0.17585312 -0.0023814677 0.26181182 0.07954447 -0.04639759
-0.295915 -0.1853658 0.023745716 0.004747393 -0.11256118 0.13554864 0.024307488 0.20984736
0.13498618 0.027328309 0.17725049 -0.031150438 -0.31274113 -0.349193 0.20541243 0.2221993
0.2929074 -0.03461036 0.06583958 -0.20463383 -0.065121815 -0.31966382 -0.15921143 0.004358179
-0.081985794 -0.10172848 -0.045878425 -0.06165944 0.013333785 -0.05399209 0.101734824 -0.13083476
-0.12383098 0.06659366 0.13280544 -0.06284615 -0.018614624 0.011686705 -0.13677253 -0.0029598516
-0.34740797 -0.08014549 -0.21215366 -0.12093613 -0.059685048 -0.36739925 -0.22351795 0.14448597
0.026266253 -0.09431117 -0.114321545 -0.16633336 0.36385378 -0.19126862 0.09546774 -0.23002358
-0.14834431 -0.15910554 -0.12241061 0.07670578 -0.02139004 -0.1164038 -0.13234052 -0.09907928
-0.2620878 0.006481525 -0.03294697 -0.12352138 0.24623765 -0.27092794 -0.05296262 -0.12742886
-0.01805063 0.0420188 -0.04643657 -0.039760493 -0.31581795 0.12720829 0.009744315 0.06203311
-0.014702838 0.24114956 -0.017452879 0.059555683 0.11839056 -0.29937267 0.03361778 -0.38607717
-0.21316129 -0.2872317 -0.017951606 0.12475105 -0.40957785 -0.21912083 -0.3075531 0.05925041
0.008358537 0.00691576 0.09304283 -0.11165076 0.029105406 0.18845809 -0.003179515 0.05092894
-0.11535608 0.09875663 -0.0820781 -0.07977513 0.12185998 -0.06467757 0.04156498 0.04841493
0.11241976 0.2791243 -0.08667152 0.087404355 -0.17587915 -0.06824393 1.2484671e-05 -0.22508217
0.009839616 -0.4833618 -0.09285875 -0.07610123 0.11868907 -0.036692034 -0.4707277 0.09550525
-0.11617725 -0.09503277 0.14300258 0.025598688 -0.16996607 -0.02653267 0.12832797 -0.41977793
0.12747242 0.21717593 0.07646324 0.23074892 0.37033075 -0.12546344 0.117953956 0.41328895
-0.26876268 0.41335252 -0.07861635 -0.15766773 -0.10794474 0.23737983 -0.26171088 0.032948717
-0.004680201 -0.22316755 -0.005318505 0.026373027 0.20750883 0.07636613 -0.3448824 0.070581645
0.04995973 -0.14199378 0.13450244 -0.39956188 -0.10432631 0.1616884 -0.3498507 -0.4089506
0.08914227 -0.12557946 -0.30169916 0.18734157 -0.22014299 -0.0652611 -0.013392131 -0.2832177
0.21740405 -0.24356496 -0.17726141 -0.23842482 -0.11132344 0.11619619 0.19339964 -0.118317395
0.03729424 0.17029184 -0.38942355 0.07270784 0.079657115 -0.27845985 0.027910331 -0.033295278
-0.119800866 -0.23797134 -0.056541193 -0.018095274 -0.012519011 0.0018794012 -0.18369031 -0.07333508
0.17127901 -0.099984735 0.123893894 -0.12151001 0.0828275 -0.11342895 -0.23449986 -0.18607722
00000000: 5e62 403e 0613 763d 099c cc3d b014 f9bd
00000010: cb97 83be b319 5f3d fa17 8ebe 67f7 d8bd
00000020: 6ba9 0dbe bfbf abbe 4fa4 84be eb76 003e
00000030: a386 973c ddb8 2b3d d13f 893d 3cd2 9a3d
00000040: 9ec0 75bb 9db7 8ebd 0023 da3c 9252 fcbd
00000050: 3412 ccbe dc25 00bd 8316 8bbd e9e2 c03b
00000060: c4fb 91be aaec 933c 88e3 5e3c 78dd 283a
00000070: bc4a 1abe 6dd8 59be 5f3e e03d bf4a ff3d
00000080: 198b 0bbe 13a4 33be c2d3 a2bd 9139 a83d
00000090: a10e 1ebe 84cd 80be 004a 7fbd e4f2 99be
000000a0: 0a4d 6d3e 74b2 d63d 122c a6be d712 34be
000000b0: 6612 1cbb 330c 863e 36e8 a23d 660b 3ebd
000000c0: 2c82 97be 88d0 3dbe 6086 c23c 0590 9b3b
000000d0: 7a86 e6bd 43cd 0a3e 7f20 c73c 3ae2 563e
000000e0: d139 0a3e 9edf df3c 2781 353e 342f ffbc
000000f0: 9b1f a0be 6dc9 b2be a357 523e 3788 633e
00000100: f5f7 953e 98c3 0dbd e7d6 863d 888b 51be
00000110: 965e 85bd faaa a3be 5208 23be 0ecf 8e3b
00000120: 2be8 a7bd 0557 d0bd 04eb 3bbd 9c8e 7cbd
00000130: f375 5a3c cf26 5dbd 595a d03d 8cf9 05be
00000140: 199b fdbd 4262 883d 26fe 073e 7bb5 80bd
00000150: b27d 98bc 9879 3f3c 190e 0cbe 12fa 41bb
00000160: 75df b1be 5223 a4bd cf3e 59be 5dad f7bd
00000170: 4f78 74bd c11b bcbe e4e1 64be 21f4 133e
00000180: 532c d73c 3726 c1bd 6a21 eabd 4b53 2abe
00000190: 0b4b ba3e ecdb 43be 9784 c33d 4d8b 6bbe
000001a0: 92e7 17be 90ec 22be 6ab2 fabd ec17 9d3d
000001b0: 2a3a afbc 1e65 eebd 4684 07be 14ea cabd
000001c0: 5f30 86be f962 d43b 67f3 06bd c7f8 fcbd
000001d0: b925 7c3e 11b7 8abe 55ef 58bd b67c 02be
000001e0: eade 93bc e81b 2c3d 4634 3ebd e6db 22bd
000001f0: e4b2 a1be e442 023e 9fa6 1f3c 6e16 7e3d
00000200: 2ce4 70bc e9ef 763e 57f9 8ebc a9f0 733d
00000210: c076 f23d 6047 99be ccb2 093d e8ab c5be
00000220: f446 5abe 0910 93be 3f0f 93bc 7a7d ff3d
00000230: 30b4 d1be 3661 60be 9a77 9dbe 8fb0 723d
00000240: 3ff2 083c 9a9d e23b 3d8d be3d 27a9 e4bd
00000250: 766e ee3c 28fb 403e 695f 50bb dd9a 503d
00000260: cf3f ecbd eb40 ca3d 9018 a8bd 2561 a3bd
00000270: ba91 f93d ac75 84bd 0a40 2a3d bc4e 463d
00000280: 553c e63d 61e9 8e3e d680 b1bd 0e01 b33d
00000290: aa19 34be 79c3 8bbd 4175 5137 f17b 66be
000002a0: 5736 213c 337b f7be ba2c bebd f6da 9bbd
000002b0: 4113 f33d 634a 16bd 3903 f1be 4298 c33d
000002c0: 57ee edbd 8aa0 c2bd 456f 123e 57b4 d13c
000002d0: 960b 2ebe 0b5b d9bc 6868 033e 22ed d6be
000002e0: 2188 023e 5e63 5e3e c298 9c3d 7249 6c3e
000002f0: fe9b bd3e 7d79 00be d891 f13d 9c9a d33e
00000300: 439b 89be f1a2 d33e 9c01 a1bd a673 21be
00000310: 2212 ddbd b313 733e f8fe 85be 3cf5 063d
00000320: 5f5c 99bb 0986 64be db46 aebb 3f0c d83c
00000330: 327d 543e d865 9c3d 6d94 b0be 1c8d 903d
00000340: 93a2 4c3d d166 11be 02bb 093e 6093 ccbe
00000350: 08a9 d5bd a591 253e a21f b3be f961 d1be
00000360: 3990 b63d e797 00be 5078 9abe 78d6 3f3e
00000370: 2a6d 61be 9da7 85bd ab6a 5bbc e901 91be
00000380: 2b9f 5e3e 1869 79be 0484 35be a325 74be
00000390: 8bfd e3bd 45f8 ed3d 8e0a 463e 6450 f2bd
000003a0: d8c1 183d fc60 2e3e 8662 c7be d9e7 943d
000003b0: 4523 a33d 4a92 8ebe 35a4 e43c a160 08bd
000003c0: 285a f5bd c2ae 73be bd97 67bd 8a3c 94bc
000003d0: 8a1c 4dbc 3d56 f63a 5019 3cbe b430 96bd
000003e0: c463 2f3e ccc4 ccbd 15bc fd3d 3dda f8bd
000003f0: 77a1 a93d 704d e8bd bb20 70be 078b 3ebe

conv1.bias f4 [64]
-0.22207089 -0.08561464 -0.15546241 -0.096948326 -0.0016175068 0.08223528 0.12096416 -0.02931757
-0.26159528 0.062571265 0.11418791 0.11802863 -0.031646624 -0.01445878 -0.049591377 -0.20190804
-0.21929318 -0.18142952 -0.02417783 -0.10772455 0.011890527 -0.008056597 -0.17450994 0.23764043
0.13379712 0.07795801 -0.07033594 -0.11060052 -0.14497077 -0.02042771 -0.16613212 0.120075755
-0.04234526 -0.20551641 -0.15194526 -0.08271043 -0.19870342 -0.12864245 -0.29896325 0.020331852
-0.113148086 0.069879964 -0.18234208 -0.13666236 -0.15892306 -0.041852884 -0.20350826 -0.22961868
-0.029691134 -0.23758352 0.14002408 0.07384775 0.04225566 0.0604529 -0.16289301 -0.017146556
-0.025008 -0.1464218 -0.2239091 -0.11822322 0.00630242 0.031149155 -0.23559752 0.11642765
00000000: 8d66 63be ba56 afbd 8a31 1fbe d88c c6bd
00000010: 8602 d4ba f86a a83d 0fbc f73d 672b f0bc
00000020: d1ef 85be 5d25 803d 5adb e93d ffb8 f13d
00000030: e49f 01bd 85e4 6cbc 5420 4bbd fbc0 4ebe
00000040: 648e 60be a9c8 39be 9610 c6bc b09e dcbd
00000050: 7cd0 423c d1ff 03bc bcb2 32be 0358 733e
00000060: 1d02 093e 73a8 9f3d 4a0c 90bd 8782 e2bd
00000070: 3873 14be 0358 a7bc 8a1e 2abe 47ea f53d
00000080: 3972 2dbd e572 52be 8a97 1bbe 1664 a9bd
00000090: e978 4bbe d9ba 03be b611 99be fc8e a63c
000000a0: 2fba e7bd 3a1d 8f3d e2b7 3abe 38f1 0bbe
000000b0: babc 22be ee6d 2bbd 7864 50be 2921 6bbe
000000c0: d23a f3bc 1849 73be 7962 0f3e 7d3d 973d
000000d0: 4514 2d3d 769d 773d 6dcd 26be ef76 8cbc
000000e0: 94dd ccbc 99ef 15be 6d48 65be 041f f2bd
000000f0: 8884 ce3b 832c ff3c 7a40 71be 9f71 ee3d

conv2.weight f4 [64, 64, 3, 3]
-0.114419416 -0.038935106 0.16926694 -0.06231095 -0.052578792 -0.07388762 -0.09417255 -0.07686489
0.047722682 0.021145169 0.013398406 -0.09061835 -0.017242817 0.047222022 -0.040363386 -0.05399203
-0.04466523 -0.121814646 -0.006242278 0.019390462 -0.06008694 -0.10437482 -0.054693006 -0.035540756
-0.0725549 -0.01148379 -0.0809048 -0.14983071 -0.056122832 -0.06681061 -0.011445669 -0.10439092
-0.007348546 0.07746584 -0.04833563 -0.03687168 -0.06927373 -0.04797742 0.016445488 0.02716067
-0.03609911 -0.0967727 -0.1342593 0.008052378 -0.021797795 -0.03355174 0.069411 -0.061995402
0.02854955 -0.031914767 -0.0014911343 -0.03072108 -0.014870307 0.006129581 -0.1119753 0.037051756
-0.08301949 -0.07721137 -0.0025155128 -0.10736925 -0.00023216098 -0.049233124 -0.026412359 -0.07757285
-0.03781893 -0.02421366 -0.0012920296 -0.05389474 -0.029611113 -0.008487424 -0.18230307 -0.07045411
-0.10323266 -0.1012356 0.012531211 -0.20691691 0.054674204 -0.031053837 0.012282912 -0.018588895
0.042084064 -0.05835074 -0.13414745 -0.07344779 -0.10954599 -0.10057517 -0.05485022 -0.047790647
-0.121856056 -0.067257516 -0.12261745 -0.020882787 -0.08535017 -0.06911147 -0.026261756 -0.07426587
-0.10902317 0.0026566398 -0.021732608 0.040463272 -0.076559655 -0.09355796 -0.08387351 -0.059155893
-0.076327816 -0.0460276 -0.04024262 -0.027844125 0.05169629 -0.10269332 -0.04738359 -0.021531112
-0.12160014 -0.0018053094 -0.056240078 0.0072747017 -0.09213311 -0.10192569 -0.13309094 -0.02841962
0.011218234 -0.05374343 -0.0765381 -0.10289816 -0.10669572 -0.07674456 -0.09477094 0.0032260504
0.03699187 -0.0887709 -0.02240663 -0.018489523 0.006142574 -0.121213146 -0.05147129 -0.08302288
0.0060651586 -0.019537454 -0.048462562 0.08016143 -0.084341235 0.023905149 -0.038072716 -0.08608023
-0.008193303 0.047707878 -0.040995415 -0.020501317 -0.086648844 0.052413493 -0.06269785 -0.047107585
0.0033042883 0.028386347 0.010091799 -0.08608655 -0.017671952 -0.07822631 -0.009985555 -0.05233327
-0.06831024 -0.094396524 -0.009291988 -0.05554154 -0.079200365 -0.020189669 0.017198367 -0.07171296
-0.005624151 -0.0523471 0.06559997 -0.07104879 -0.063823305 -0.038243614 -0.023979122 -0.03519421
0.00960249 -0.010014255 0.07533783 -0.028325206 -0.019692564 -0.11679617 -0.043593775 -0.1485577
-0.12151875 -0.09223363 -0.06411361 -0.06838465 -0.19575046 -0.018574512 -0.057884693 -0.08789789
0.019802514 0.0340771 0.057820447 -0.012296564 0.05847982 -0.039851237 -0.16105202 -0.069511965
-0.038643695 -0.046083685 -0.07200725 -0.026456727 -0.11769912 -0.076758 -0.0904812 -0.047016848
0.07617385 0.08398014 0.0009695611 0.08883716 -0.028566664 -0.00688649 0.014332422 -0.041643854
-0.044400174 -0.025545033 -0.05392559 0.013619794 -0.07151555 -0.02625467 -0.083548315 -0.023280602
-0.085574575 -0.042270843 0.014132633 -0.04927923 -0.018402938 -0.027574299 -0.17803377 -0.0069723045
0.03818304 -0.0047656354 0.017127339 -0.10492026 0.0811518 -0.056123372 -0.13529599 -0.04134266
-0.02894956 -0.06584039 -0.044795368 -0.003634725 0.0051410953 -0.09348508 -0.092421606 -0.07748344
-0.0149446735 -0.0031857977 -0.06295352 -0.03233773 0.09631167 -0.17613558 -0.03237388 -0.12156776
00000000: ba54 eabd 6b7a 1fbd 5054 2d3e c439 7fbd
00000010: dc5c 57bd 6452 97bd 8add c0bd 576b 9dbd
00000020: dc78 433d a238 ad3c fd84 5b3c 1d96 b9bd
00000030: cf40 8dbc e16b 413d 1454 25bd bf26 5dbd
00000040: e3f2 36bd f579 f9bd 068c ccbb bfd8 9e3c
00000050: b91d 76bd 77c2 d5bd c605 60bd 2f93 11bd
00000060: aa97 94bd 8226 3cbc 6ab1 a5bd 396d 19be
00000070: 0ee1 65bd 00d4 88bd 9e86 3bbc e8ca d5bd
00000080: 12cc f0bb 69a6 9e3d 95fb 45bd c206 17bd
00000090: 63df 8dbd f983 44bd b0b8 863c 0e80 de3c
000000a0: a9dc 13bd c430 c6bd 457b 09be 1fee 033c
000000b0: 4a91 b2bc 8d6d 09bd 5b27 8e3d e4ee 7dbd
000000c0: bfe0 e93c 0fb9 02bd 2a72 c3ba c6aa fbbc
000000d0: 97a2 73bc a7da c83b 4e53 e5bd 95c3 173d
000000e0: 1f06 aabd ff20 9ebd 4ddb 24bb 69e4 dbbd
000000f0: 3d70 73b9 aca8 49bd bb5e d8bc 84de 9ebd
00000100: 06e8 1abd ba5b c6bc 5259 a9ba bbc0 5cbd
00000110: 0193 f2bc d60e 0bbc a8ad 3abe 3f4a 90bd
00000120: a56b d3bd 9c54 cfbd b54f 4d3c 07e2 53be
00000130: 0ff2 5f3d 9e64 febc 443e 493c bd47 98bc
00000140: 5760 2c3d 2f01 6fbd f35d 09be cc6b 96bd
00000150: a659 e0bd 5bfa cdbd a0aa 60bd 20c0 43bd
00000160: ab8f f9bd 4fbe 89bd dc1e fbbd 6112 abbc
00000170: 12cc aebd 508a 8dbd e522 d7bc b418 98bd
00000180: 8a47 dfbd 051b 2e3b 9508 b2bc d1bc 253d
00000190: 4fcb 9cbd 519b bfbd e0c5 abbd 734d 72bd
000001a0: c251 9cbd 7087 3cbd 72d5 24bd 5d19 e4bc
000001b0: 7dbf 533d e050 d2bd 4c15 42bd 0462 b0bc
000001c0: 7f09 f9bd 22a0 ecba ff5b 66bd 9f60 ee3b
000001d0: 49b0 bcbd 6bbe d0bd fe48 08be 43d0 e8bc
000001e0: afcc 373c 1222 5cbd 02c0 9cbd 45bc d2bd
000001f0: 4983 dabd 402c 9dbd 4417 c2bd 256c 533b
00000200: c984 173d 85cd b5bd 1c8e b7bc 5777 97bc
00000210: a547 c93b 993e f8bd 8fd3 52bd e607 aabd
00000220: 3dbe c63b 030d a0bc ae80 46bd ad2b a43d
00000230: 19bb acbd bbd4 c33c 23f2 1bbd d54a b0bd
00000240: 343d 06bc 5669 433d cfea 27bd 61f2 a7bc
00000250: f374 b1bd 88af 563d bb67 80bd e2f3 40bd
00000260: c28c 583b 7c8a e83c 1358 253c 254e b0bd
00000270: c5c4 90bc 1e35 a0bd 749a 23bc 695b 56bd
00000280: 3de6 8bbd f752 c1bd 6c3d 18bc 877f 63bd
00000290: cd33 a2bd ce64 a5bc 97e3 8c3c 3fde 92bd
000002a0: cc4a b8bb ea69 56bd 4759 863d 0782 91bd
000002b0: cbb5 82bd 56a5 1cbd dd6f c4bc ce27 10bd
000002c0: c353 1d3c d412 24bc b84a 9a3d 430a e8bc
000002d0: 4d52 a1bc d532 efbd 638f 32bd 821f 18be
000002e0: d3de f8bd fce4 bcbd ff4d 83bd 400d 8cbd
000002f0: cf72 48be 9329 98bc 8018 6dbd cf03 b4bd
00000300: e238 a23c 6e94 0b3d 22d5 6c3d 8777 49bc
00000310: 8988 6f3d 0d3b 23bd d2ea 24be 4a5c 8ebd
00000320: da48 1ebd 3fc2 3cbd 8978 93bd c7bb d8bc
00000330: 3c0c f1bd 4c33 9dbd 354e b9bd bd94 40bd
00000340: 0901 9c3d c8fd ab3d 252a 7e3a 42f0 b53d
00000350: a304 eabc 11a8 e1bb 89d2 6a3c bf92 2abd
00000360: f5dc 35bd d143 d1bc 14e1 5cbd 8e25 5f3c
00000370: bf76 92bd 0914 d7bc 611b abbd f6b6 bebc
00000380: b941 afbd 3124 2dbd 8f8c 673c 05d9 49bd
00000390: c2c1 96bc 7fe3 e1bc 7c4e 36be ee77 e4bb
000003a0: d265 1c3d 0c29 9cbb a24e 8c3c 6fe0 d6bd
000003b0: ea32 a63d 9fe1 65bd 088b 0abe ec56 29bd
000003c0: a127 edbc 54d7 86bd 597b 37bd 9134 6ebb
000003d0: a276 a83b 1b75 bfbd 8a47 bdbd a3af 9ebd
000003e0: 81da 74bc d1c8 50bb c6ed 80bd 9174 04bd
000003f0: 0e3f c53d e35c 34be 799a 04bd 85f8 f8bd

conv2.bias f4 [64]
-0.063731834 -0.07506563 -0.012171965 -0.062817015 -0.031523723 -0.059540402 -0.020509033 -0.08855309
-0.026286734 -0.037965175 -0.05702952 -0.086094566 -0.067281194 -0.030453997 -0.041376367 -0.007117022
-0.0292882 -0.05551189 -0.0625938 -0.06279875 -0.026399124 -0.06810379 -0.015809344 -0.08698929
-0.043597244 -0.08681106 -0.066869885 -0.023603056 -0.081231214 -0.033751924 -0.042446196 -0.037732102
-0.097791255 0.029653003 -0.062315475 -0.043428168 -0.09322624 -0.0032484466 -0.09566128 -0.06939276
-0.022717753 -0.0308887 -0.07011961 -0.072001316 -0.09854541 -0.013995397 -0.010984718 -0.08886167
-0.07204732 -0.061666407 -0.016078174 -0.0692333 -0.046981376 -0.09257543 -0.071883895 -0.03308826
-0.08614935 -0.024409017 -0.027878348 -0.030708514 0.06650012 -0.085842855 -0.022863397 -0.053846665
00000000: d685 82bd 02bc 99bd ec6c 47bc 35a6 80bd
00000010: 051f 01bd a3e0 73bd 8f02 a8bc 535b b5bd
00000020: 4757 d7bc 5f81 1bbd c997 69bd 5952 b0bd
00000030: b9ca 89bd a97a f9bc 447a 29bd e835 e9bb
00000040: cfed efbc 7060 63bd 2e31 80bd a29c 80bd
00000050: fa42 d8bc 007a 8bbd 9982 81bc 7127 b2bd
00000060: 0693 32bd ffc9 b1bd 14f3 88bd 325b c1bc
00000070: 8d5c a6bd 753f 0abd 10dc 2dbd fa8c 1abd
00000080: c846 c8bd dbea f23c 833e 7fbd bce1 31bd
00000090: 66ed bebd e4e3 54bb 10ea c3bd cb1d 8ebd
000000a0: 951a babc 4d0a fdbc df9a 8fbd 6d75 93bd
000000b0: 2dd2 c9bd f34c 65bc 3ff9 33bc 1bfd b5bd
000000c0: 8c8d 93bd ea95 7cbd 60b6 83bc 30ca 8dbd
000000d0: 8b6f 40bd 3098 bdbd dd37 93bd 8e87 07bd
000000e0: 126f b0bd 6bf5 c7bc 2261 e4bc 6c90 fbbc
000000f0: 3731 883d 61ce afbd 054c bbbc 528e 5cbd

conv3.weight f4 [32, 64, 3, 3]
-0.074241936 0.027823616 -0.15031432 -0.077863276 0.046506874 -0.033037458 -0.04288348 0.04156201
-0.033832625 0.011057663 0.04470211 0.014628259 0.063365474 -0.01091045 -0.06353856 -0.1148447
0.023496386 -0.091018766 -0.10251108 -0.024399277 -0.11467662 -0.09938224 0.0020413413 0.08580529
0.04924752 0.04619564 -0.09712268 -0.0130584715 -0.021667551 0.01536717 -0.06341006 0.02691668
-0.06853833 0.0017408113 -0.064822555 -0.0504694 0.03714632 0.09051989 0.093788706 -0.0140355965
0.062255885 0.068669245 0.103702284 0.024617312 0.172978 0.06391651 0.0055673695 0.06704479
-0.1656775 -0.096650355 -0.02102911 -0.019958485 -0.009766837 -0.03179223 0.027793646 -0.119057484
-0.06866641 -0.113620445 -0.012188776 -0.10590597 -0.0080269715 -0.05397966 -0.12576072 0.06764998
0.09684904 0.079526566 0.119171746 0.14942743 0.069859825 0.09014621 0.018299876 0.013519285
-0.045605596 -0.0642072 0.052525405 -0.07287681 -0.07086689 -0.16505365 0.03274879 -0.033412833
-0.16042668 0.076378435 0.03111108 0.0290817 0.056422286 0.08241031 0.077864066 0.083270565
0.024549747 0.031025516 -0.17137866 0.0017682548 0.034243725 -0.08913625 -0.040315524 0.060166664
-0.010432839 0.11204919 -0.097626805 -0.13924883 -0.017277714 0.073024996 -0.12333801 -0.08030116
0.02735306 -0.11501863 -0.013334807 -0.06770096 0.05132991 0.09100759 0.050947923 0.053359907
0.07327819 0.13819826 0.04661035 0.030301776 0.05877836 -0.10633783 -0.097122796 -0.051062442
-0.051966902 0.08161892 -0.02306915 -0.08829006 -0.047538113 -0.031297818 0.036451064 0.09485105
0.04706932 0.13764316 -0.0048484025 0.031832017 0.06666221 0.06632023 0.025972145 -0.056570373
-0.026599282 0.0029399768 0.014257594 -0.040684067 -0.13795628 -0.09368049 -0.05308057 0.027270172
-0.069730625 0.03356877 -0.1409477 -0.15812187 0.034923263 -0.07898668 -0.063480265 -0.09226727
0.026943 0.073726475 0.17049874 0.14099735 0.030894991 0.096866176 0.1395801 0.011622606
0.032510582 0.07257701 0.12143748 0.055940595 0.06382183 0.12353713 0.05890117 0.122259855
0.05029099 0.07657755 0.06279699 -0.041372605 -0.018481128 -0.0580557 0.013684117 -0.00088024925
-0.06157445 -0.14076148 0.00921939 -0.12786897 -0.123454206 -0.13865346 0.038507752 0.025627818
-0.1009677 -0.008690984 -0.11036395 0.002741719 -0.078478 -0.005613384 -0.10174948 0.031439684
0.0050308574 0.01826712 -0.06584993 0.055023037 -0.07923646 -0.15263438 0.06635602 -0.045059785
0.065608114 -0.017783977 0.051401287 0.07747122 0.118398316 0.09490928 -0.06245493 0.0050189593
0.06783515 0.12788142 0.07080698 0.059246033 0.07490488 0.041965343 -0.024903469 0.106619135
0.08284755 0.102837466 -0.043283693 -0.089621045 0.078016356 0.061554875 0.029564483 0.122265466
0.068624325 -0.016644875 -0.06328144 0.033873696 -0.07404876 -0.0030060972 -0.018548444 -0.10800021
-0.13267122 0.014825293 0.11672712 0.110803 -0.009033667 0.056012437 -0.03245627 0.14120837
0.008292991 0.13192211 -0.021688662 -0.032880038 0.032942053 0.04666933 -0.11008699 0.0714899
0.022168273 -0.13579471 0.13014504 -0.050016686 -0.03247103 -0.008677737 0.053092346 0.09706445
00000000: 280c 98bd 5aee e33c ffeb 19be c876 9fbd
00000010: fe7d 3e3d 4952 07bd 97a6 2fbd ed3c 2a3d
00000020: 1494 0abd 332b 353c 8f19 373d 5eab 6f3c
00000030: c2c5 813d bec1 32bc 8120 82bd b333 ebbd
00000040: 7e7b c03c 0c68 babd 54f1 d1bd fee0 c7bc
00000050: 93db eabd ea88 cbbd 06c8 053b afba af3d
00000060: c4b7 493d a437 3d3d 41e8 c6bd 33f3 55bc
00000070: 2680 b1bc 95c6 7b3c 22dd 81bd 5f80 dc3c
00000080: d35d 8cbd ef2b e43a b0c1 84bd 00b9 4ebd
00000090: bd26 183d 7e62 b93d 4b14 c03d 8ff5 65bc
000000a0: 0700 7f3d 76a2 8c3d dd61 d43d 3faa c93c
000000b0: 2521 313e a9e6 823d 7b6e b63b c74e 893d
000000c0: 5da7 29be 9ff0 c5bd 3d45 acbc fa7f a3bc
000000d0: 1505 20bc 9238 02bd 80af e33c 69d4 f3bd
000000e0: faa0 8cbd d6b1 e8bd 6fb3 47bc 3be5 d8bd
000000f0: 8f83 03bc c719 5dbd 6bc7 00be 138c 8a3d
00000100: ca58 c63d d3de a23d 5110 f43d 8103 193e
00000110: ab12 8f3d 939e b83d 9fe9 953c fe7f 5d3c
00000120: efcc 3abd 117f 83bd e124 573d 7040 95bd
00000130: a922 91bd d303 29be 9823 063d e5db 08bd
00000140: e446 24be 4c6c 9c3d aadc fe3c bf3c ee3c
00000150: 0e1b 673d bdc6 a83d 3277 9f3d c289 aa3d
00000160: 8d1c c93c 3929 fe3c e37d 2fbe c9c4 e73a
00000170: 2643 0c3d 118d b6bd e421 25bd 5271 763d
00000180: 80ee 2abc 0c7a e53d 90f0 c7bd 3f97 0ebe
00000190: fe89 8dbc 218e 953d a398 fcbd ef74 a4bd
000001a0: 8613 e03c e38e ebbd 3c7a 5abc cda6 8abd
000001b0: 503f 523d 3062 ba3d c5ae 503d eb8f 5a3d
000001c0: e012 963d d883 0d3e 7fea 3e3d 6e3b f83c
000001d0: 94c1 703d a6c7 d9bd 51e8 c6bd da26 51bd
000001e0: 3fdb 54bd d227 a73d 84fb bcbc 6bd1 b4bd
000001f0: 53b7 42bd 2432 00bd b64d 153d 4441 c23d
00000200: c2cb 403d 54f2 0c3e 59df 9ebb 4a62 023d
00000210: 3286 883d e7d2 873d 89c3 d43c 56b6 67bd
00000220: bde6 d9bc a0ac 403b af98 693c 56a4 26bd
00000230: 6944 0dbe 8fdb bfbd 036b 59bd b265 df3c
00000240: eece 8ebd 687f 093d 9854 10be b3ea 21be
00000250: b20b 0f3d c5c3 a1bd f101 82bd 9ff6 bcbd
00000260: 91b7 dc3c e8fd 963d 3997 2e3e 9c61 103e
00000270: 7e17 fd3c c661 c63d 16ee 0e3e be6c 3e3c
00000280: d129 053d 41a3 943d 37b4 f83d f721 653d
00000290: 05b5 823d 0901 fd3d 5a42 713d 6063 fa3d
000002a0: edfd 4d3d b1d4 9c3d b59b 803d 5276 29bd
000002b0: bc65 97bc d0cb 6dbd 5933 603c 87c0 66ba
000002c0: 7e35 7cbd c723 10be ed0c 173c 15f0 02be
000002d0: 8fd5 fcbd 2cfb 0dbe 4eba 1d3d 6ef1 d13c
000002e0: 27c8 cebd a164 0ebc 7f06 e2bd 69ae 333b
000002f0: 13b9 a0bd 7af0 b7bb 0862 d0bd e6c6 003d
00000300: e4d9 a43b eda4 953c 54dc 86bd d65f 613d
00000310: ba46 a2bd 304c 1cbe aae5 873d 9c90 38bd
00000320: 8c5d 863d b4af 91bc 288a 523d 3ba9 9e3d
00000330: d17a f23d cc5f c23d bed0 7fbd 1576 a43b
00000340: 28ed 8a3d 59f3 023e 4003 913d f8ab 723d
00000350: bb67 993d dae3 2b3d 5c02 ccbc 225b da3d
00000360: faab a93d 739c d23d 3e4a 31bd 3d8b b7bd
00000370: 0ac7 9f3d f720 7c3d 3731 f23c 5166 fa3d
00000380: e98a 8c3d d55a 88bc b399 81bd 25bf 0a3d
00000390: e0a6 97bd f101 45bb e8f2 97bc 372f ddbd
000003a0: f7da 07be c9e5 723c a10e ef3d afec e23d
000003b0: f201 14bc 4c6d 653d def0 04bd ed98 103e
000003c0: 53df 073c 9716 073e 6cac b1bc 38ad 06bd
000003d0: 3fee 063d 5728 3f3d 4a75 e1bd 4c69 923d
000003e0: 3d9a b53c c50d 0bbe be44 053e 4cde 4cbd
000003f0: 5800 05bd 112d 0ebc 5c77 593d bac9 c63d

conv3.bias f4 [32]
-0.05491781 -0.06709398 -0.03863533 -0.07858636 -0.060550563 0.0025525414 -0.00012040122 -0.084525295
-0.30066124 -0.0702417 -0.051298182 -0.09637091 -0.010565686 -0.037034575 -0.07454052 -0.06161112
-0.041530635 -0.048506334 -0.09005023 -0.028617447 -0.019841056 0.006638446 -0.07746269 -0.077334546
0.01921981 -0.019879313 -0.04019898 -0.07036618 -0.0656582 -0.048300415 -0.020168047 -0.0460658
00000000: 7ff1 60bd 9268 89bd 1440 1ebd e3f1 a0bd
00000010: de03 78bd 8a48 273b ea7f fcb8 991b adbd
00000020: 45f0 99be e1da 8fbd 0b1e 52bd 1d5e c5bd
00000030: b31b 2dbc 91b1 17bd b3a8 98bd f15b 7cbd
00000040: 071c 2abd 94ae 46bd 416c b8bd 236f eabc
00000050: b689 a2bc 5287 d93b c2a4 9ebd 9361 9ebd
00000060: dd72 9d3c f1d9 a2bc b0a7 24bd 251c 90bd
00000070: ce77 86bd a8d6 45bd 7637 a5bc 7eaf 3cbd

conv4.weight f4 [9, 32, 3, 3]
-0.0038990711 -0.0017617892 -0.051999602 -0.05767639 -0.045689847 -0.14957856 -0.024467362 -0.054083977
-0.11868167 -0.09463303 -0.10120172 0.07013143 -0.21059556 -0.019748455 -0.10087473 -0.06759519
0.020507896 -0.077748 -0.104177974 0.047207 -0.09749946 0.004474449 -0.15800533 -0.121408515
-0.038298395 -0.023211457 -0.105352476 -0.07209208 -0.12152844 -0.0022756686 -0.051766347 0.02843743
-0.08495393 0.04329394 -0.088802025 0.084213145 0.013232632 0.07808969 0.012571125 0.112668596
0.018441832 0.10554544 0.14297974 0.027028618 0.11454555 0.003145213 -0.11734808 0.074176356
-0.07836164 0.011660802 0.045147717 0.023560194 0.028483981 -0.029226867 -0.039086465 -0.035717603
-0.13174784 0.17501067 0.2156595 0.24322411 0.05769919 0.081964046 0.03812628 0.060342796
0.16843604 0.04281167 0.08970997 0.058919925 0.08522166 0.06246931 0.052438717 0.008355656
-0.17163894 -0.24077469 -0.23090936 -0.19839996 0.36995363 0.04768569 -0.44893566 -0.20278925
-0.3631155 0.092422344 -0.046815198 -0.013276046 -0.08591395 -0.11258239 -0.09132007 -0.033062078
-0.16784936 0.026675835 -0.018264083 -0.057537697 -0.046629153 -0.06152496 0.018407816 -0.054414667
-0.15236595 -0.055477493 -0.097334296 0.077459715 0.0811258 0.013963727 -0.018366288 0.03543988
0.04018789 0.024770916 0.04441524 0.090819456 0.014965854 -0.03345997 -0.014430944 -0.11360408
0.04625638 -0.078394555 0.019857287 -0.054531433 -0.093837984 -0.0010611486 -0.22774279 -0.038472764
0.170212 -0.50117755 0.10436221 0.051659044 0.19903547 0.022995368 0.031578336 -0.0067797992
0.12588865 0.10061207 -0.014461014 0.049830955 0.06359005 0.19588262 0.114918485 0.05936657
0.025547273 -0.037725292 0.01563463 0.1126333 0.11209422 0.123072706 0.04625074 0.08467656
0.13318326 0.067619406 0.1294696 -0.029824603 0.13473904 0.123995416 0.071212396 0.13157026
0.019645352 -0.04260683 -0.06220815 -0.0057338127 -0.07951827 0.048140235 -0.039873056 -0.06367862
-0.025181718 -0.0036605706 0.013412979 -0.035461225 -0.022082036 0.058529995 0.013202221 -0.049944934
-0.060159083 0.0558742 0.05710039 -0.23077656 -0.13228822 -0.08513729 -0.010613918 0.34717625
-0.0005783764 0.035508305 0.015136765 0.016263692 0.0037286994 0.09675718 0.015945788 0.011425421
0.12620024 0.20458551 0.084123805 0.045029882 0.045879107 -0.114372775 0.10044371 -0.008451506
0.078265496 0.33577085 -0.015483919 -0.0861894 -0.049145352 -0.13355455 -0.05107452 -0.0752918
-0.06981799 0.035406206 -0.0892516 -0.03992612 -0.06268712 -0.008488789 -0.066262014 0.058834955
0.050270453 0.095850796 0.045780905 0.01941147 0.056756534 0.114662826 0.0677592 0.060296666
0.15128043 0.107043386 -0.20620993 0.16427189 0.15232027 -0.28590807 -0.083227366 -0.11386396
-0.03982299 -0.01902724 0.08006772 0.03930561 -0.08800977 -0.042094998 -0.09350364 -0.0435852
0.06254877 -0.006037778 -0.25532517 -0.025634903 -0.06767461 0.030673604 -0.0023540254 -0.06528719
-0.05349573 -0.063905105 -0.00854309 0.028331546 0.029067948 0.050646458 0.040994328 0.07801619
0.097660206 0.045771774 -0.030157428 0.026908966 0.15655476 -0.020377472 0.07032555 0.057913378
00000000: 8f87 7fbb d6eb e6ba 89fd 54bd 143e 6cbd
00000010: 4725 3bbd 1f2b 19be c76f c8bc 2987 5dbd
00000020: 600f f3bd f6ce c1bd d942 cfbd 11a1 8f3d
00000030: 5da6 57be 83c7 a1bc 6997 cebd 596f 8abd
00000040: 2d00 a83c 583a 9fbd 435b d5bd 215c 413d
00000050: ccad c7bd 669e 923b 26cc 21be 07a5 f8bd
00000060: c7de 1cbd f425 bebc 0ac3 d7bd 03a5 93bd
00000070: e7e3 f8bd 6223 15bb f308 54bd 9df5 e83c
00000080: 53fc adbd fd54 313d d6dd b5bd f177 ac3d
00000090: aecd 583c 7ded 9f3d 1ff7 4d3c cbbe e63d
000000a0: 5313 973c 3528 d83d 4869 123e 1f6b dd3c
000000b0: db96 ea3d eb1f 4e3b 3154 f0bd c6e9 973d
000000c0: 117c a0bd f30c 3f3c d0ec 383d 4f01 c13c
000000d0: 3d57 e93c 2f6d efbc 2119 20bd 9f4c 12bd
000000e0: e8e8 06be ff35 333e d8d5 5c3e be0f 793e
000000f0: fc55 6c3d c4dc a73d 4d2a 1c3d 022a 773d
00000100: 7f7a 2c3e 4a5b 2f3d dcb9 b73d 0556 713d
00000110: b288 ae3d d2df 7f3d fbc9 563d 29e6 083c
00000120: 1ec2 2fbe a48d 76be 8173 6cbe 5c29 4bbe
00000130: 906a bd3e 1252 433d e5da e5be fca7 4fbe
00000140: 46ea b9be ed47 bd3d 4bc1 3fbd c683 59bc
00000150: a7f3 afbd 9991 e6bd 0406 bbbd 1a6c 07bd
00000160: b4e0 2bbe 4887 da3c 8f9e 95bc a6ac 6bbd
00000170: 36fe 3ebd 9901 7cbd fdcb 963c eae1 5ebd
00000180: d205 1cbe 5e3c 63bd 3457 c7bd 33a3 9e3d
00000190: 4925 a63d 1ec8 643c e674 96bc 6829 113d
000001a0: 0f9c 243d 60ec ca3c c1ec 353d 8dff b93d
000001b0: 5733 753c 520d 09bd c46f 6cbc 42a9 e8bd
000001c0: 5477 3d3d 538d a0bd c0ab a23c 5a5c 5fbd
000001d0: 212e c0bd 3d16 8bba 6835 69be 9e95 1dbd
000001e0: 0e4c 2e3e 2c4d 00bf dbbb d53d 6f98 533d
000001f0: f4cf 4b3e c860 bc3c 4958 013d 1429 debb
00000200: f4e8 003e b30d ce3d e4ed 6cbc 8b1b 4c3d
00000210: 803b 823d 7495 483e 625a eb3d 5c2a 733d
00000220: 8448 d13c d685 1abd 3214 803c 4aac e63d
00000230: a891 e53d 8b0d fc3d 6a71 3d3d e76a ad3d
00000240: 3161 083e 0b7c 8a3d ae93 043e ba52 f4bc
00000250: 08f9 093e 4ff1 fd3d ced7 913d 5bba 063e
00000260: 4aef a03c 8084 2ebd f9cd 7ebd b5e2 bbbb
00000270: 7ada a2bd b22e 453d ee51 23bd f069 82bd
00000280: e449 cebc 2fe6 6fbb 1dc2 5b3c ca3f 11bd
00000290: 63e5 b4bc 26bd 6f3d 214e 583c 0f93 4cbd
000002a0: 5f69 76bd 58dc 643d 19e2 693d b150 6cbe
000002b0: 9076 07be 765c aebd 00e6 2dbc 16c1 b13e
000002c0: 2f9e 17ba 2871 113d 3200 783c 6f3b 853c
000002d0: 325d 743b a128 c63d bea0 823c b031 3b3c
000002e0: a33a 013e dd7e 513e 1a49 ac3d 4171 383d
000002f0: bbeb 3b3d 463c eabd 6fb5 cd3d 2f78 0abc
00000300: a949 a03d 28ea ab3e 43b0 7dbc 1184 b0bd
00000310: a34c 49bd 86c2 08be 8433 51bd 9632 9abd
00000320: bcfc 8ebd 1906 113d 8bc9 b6bd 9289 23bd
00000330: 1b62 80bd 9014 0bbc 61b4 87bd ecfc 703d
00000340: 64e8 4d3d 6c4d c43d c284 3b3d ce04 9f3c
00000350: 8a79 683d 58d4 ea3d 56c5 8a3d a3f9 763d
00000360: 42e9 1a3e 9039 db3d b228 53be e436 283e
00000370: d8f9 1b3e 8b62 92be 1c73 aabd 8231 e9bd
00000380: 6e1d 23bd 04df 9bbc 8bfa a33d ebfe 203d
00000390: 773e b4bd ce6b 2cbd d67e bfbd 6586 32bd
000003a0: 9219 803d 8ed8 c5bb fbb9 82be 4a00 d2bc
000003b0: fc98 8abd 3647 fb3c fe45 1abb 4ab5 85bd
000003c0: 571e 5bbd aee0 82bd 51f8 0bbc 8f17 e83c
000003d0: e81f ee3c a972 4f3d abe9 273d f4c6 9f3d
000003e0: 1302 c83d 2f7b 3b3d b60c f7bc 3170 dc3c
000003f0: e44f 203e a8ee a6bc d806 903d 9436 6d3d

conv4.bias f4 [9]
0.045896657 0.040538587 0.031469755 0.05073963 0.041991442 0.033839684 0.047657702 0.044938166
0.033299495
00000000: 22fe 3b3d ca0b 263d 6ee6 003d 5cd4 4f3d
00000010: 38ff 2b3d 7b9b 0a3d b934 433d 1511 383d
00000020: 0d65 083d
