django_project/uploads/core/model_epoch_8.pth (torch_old, 252432 bytes, 8 tensors)

weight f4 [64, 1, 5, 5]
0	0x3e7ff6a9	0.24996437
1	0x3dfb077d	0.12257288
2	0x3e28c173	0.16480045
3	0xbd668185	-0.056275863
4	0xbe3b5133	-0.18292694
5	0x3df19dec	0.11797699
6	0xbe5b3119	-0.21405448
7	0xbd22e55a	-0.039769508
8	0xbd94278d	-0.07234106
9	0xbe860d55	-0.26182047
10	0xbe472c1f	-0.19450425
11	0x3e41c930	0.18924403
12	0x3daf66ee	0.08564554
13	0x3dddbd9a	0.10827179
14	0x3e0e5a2c	0.13901585
15	0x3e108c2e	0.14115974
16	0x3d7c0c64	0.061535254
17	0xbb19c106	-0.0023460998
18	0x3dc0d761	0.0941608
19	0xbd51191e	-0.051049344
20	0xbeaafb95	-0.33395067
21	0x3d0b27b9	0.03397343
22	0xbad5e247	-0.0016318046
23	0x3d952297	0.07281988
24	0xbe58bafa	-0.21165076
25	0x3d8b3db1	0.06798876
26	0x3d39710e	0.045273833
27	0x3d34ad2f	0.044110473
28	0xbd9b8bd6	-0.07595031
29	0xbe0934d4	-0.13399059
30	0x3e227cfc	0.1586799
31	0x3e23764e	0.15963098
32	0xbdbc881b	-0.092056476
33	0xbdd68592	-0.10474695
34	0xbc36e8ee	-0.011163933
35	0x3e04d8ec	0.12973374
36	0xbe0189e7	-0.12650262
37	0xbe517604	-0.20455176
38	0x3ca8aefc	0.020591252
39	0xbe7179e2	-0.23581651
40	0x3e903692	0.28166634
41	0x3e180e1a	0.1484913
42	0xbe8b5f8b	-0.2722133
43	0xbdb105f2	-0.08643712
44	0x3d834655	0.06409899
45	0x3ea03c3e	0.3129596
46	0x3e020bb4	0.12699777
47	0x3c6eec53	0.014582711
48	0xbe53fdf9	-0.20702352
49	0xbde3477c	-0.11097619
50	0x3dbab54c	0.09116611
51	0x3d922286	0.07135491
52	0xbd377680	-0.044790745
53	0x3e5209c2	0.20511535
54	0x3dbd9d02	0.092584625
55	0x3e8cfe54	0.27537787
56	0x3e4e0edb	0.20122854
57	0x3dc29901	0.095018394
58	0x3e7baacb	0.24576871
59	0x3d116cf1	0.035504285
60	0xbe7edb11	-0.24888255
61	0xbe9261ac	-0.28590143
62	0x3e8be555	0.27323404
63	0x3e95b1d4	0.29237235
64	0x3eb7a74f	0.35869834
65	0x3cf028e6	0.029316377
66	0x3e06a781	0.13149835
67	0xbe0db988	-0.13840306
68	0x3b05c877	0.0020413676
69	0xbe810154	-0.25196326
70	0xbdc52314	-0.09625831
71	0x3d8a0cff	0.0674076
72	0xbc97adc8	-0.018515483
73	0xbd192cb9	-0.037396166
74	0x3c9aafb6	0.018882614
75	0x3a28d921	0.0006441046
76	0x3d9b936b	0.07596477
77	0x3c216095	0.009849687
78	0x3e2abd60	0.16673803
79	0xbd86bfdb	-0.06579562
80	0xbd79a135	-0.060944755
81	0x3e054495	0.13014443
82	0x3e4bea1e	0.19913527
83	0x3b7f3aa1	0.0038944858
84	0x3d439803	0.04775239
85	0x3d9ad3eb	0.075599514
86	0xbd935fb4	-0.07195988
87	0x3d86cb8f	0.065817945
88	0xbe8f273f	-0.2795963
89	0xbc4c2ec1	-0.012462319
90	0xbe1767f5	-0.1478575
91	0xbd625261	-0.055254344
92	0x3c0fd1f7	0.008778087
93	0xbe99858e	-0.29984707
94	0xbe1f716f	-0.15570615
95	0x3e54dc8f	0.20787261
96	0x3dba892b	0.09108194
97	0xbce2d71e	-0.027690466
98	0xbd3d9443	-0.04628397
99	0xbdca60da	-0.09881754
100	0x3ec154fb	0.37760147
101	0xbe083401	-0.13301088
102	0x3e32ff09	0.174801
103	0xbe036f94	-0.12835532
104	0xbd2aad79	-0.041669343
105	0xbdce3f86	-0.1007071
106	0xbd3ee519	-0.046605203
107	0x3e24b8b0	0.16086078
108	0x3dad89f0	0.08473575
109	0xbc21c51c	-0.009873655
110	0xbd736570	-0.05942291
111	0xbcbe497c	-0.0232284
112	0xbe4203fe	-0.18946835
113	0x3deb1f50	0.11480582
114	0x3da33a70	0.079701304
115	0xbda18ed1	-0.07888568
116	0x3e9484f0	0.29007673
117	0xbe785405	-0.24250801
118	0x3c50f31c	0.012753274
119	0xbd521cfa	-0.051297165
120	0x3d0b631f	0.034030076
121	0x3dbf58ac	0.09343085
122	0xbb4bd603	-0.0031102903
123	0x3d0bc68c	0.034124896
124	0xbe6ff30b	-0.23432557
125	0x3e36602b	0.17810123
126	0x3d779801	0.060447697
127	0x3de918e0	0.11381698
128	0x3d178b05	0.036997814
129	0x3e95c315	0.29250398
130	0x3d00c9e2	0.03144253
131	0x3ddfc2d4	0.109258324
132	0x3e2d0507	0.16896449
133	0xbe7eb7b4	-0.24874765
134	0x3dad8c7d	0.08474062
135	0xbeacf5c3	-0.3378125
136	0xbe26e0b7	-0.1629666
137	0xbe74341b	-0.23848002
138	0x3cf3db49	0.02976765
139	0x3e3218c9	0.17392267
140	0xbeb8e227	-0.3611004
141	0xbe2de5f2	-0.16982248
142	0xbe849858	-0.2589748
143	0x3dd9ee8c	0.10641202
144	0x3d682f73	0.056685876
145	0x3d61f045	0.05516078
146	0x3e105282	0.14093974
147	0xbd819762	-0.06327702
148	0x3d9b235c	0.07575104
149	0x3e7192b0	0.23591113
150	0x3d5f1d77	0.05447146
151	0x3dd525bd	0.10407589
152	0xbd854748	-0.065077364
153	0x3e0bf01b	0.13665812
154	0xbc65531e	-0.013996867
155	0xbccf8df4	-0.025336243
156	0x3e342b20	0.17594576
157	0xbc857622	-0.016291682
158	0x3d93b4a9	0.072121926
159	0x3de4209e	0.11139034
160	0x3e30c965	0.17264326
161	0x3eaaf8e8	0.33393025
162	0xbd35b7b2	-0.04436464
163	0x3ded63ad	0.11591277
164	0xbdeb1787	-0.11479097
165	0xbc881342	-0.016610745
166	0x3d56306b	0.05229227
167	0xbe384147	-0.17993651
168	0x3d1af2ba	0.03782914
169	0xbed78f98	-0.4210174
170	0xbd33e067	-0.04391518
171	0xbcec7d56	-0.028868359
172	0x3e269274	0.16266805
173	0x39a2d36c	0.0003105657
174	0xbed19b93	-0.40939006
175	0x3dac98cb	0.084275804
176	0xbe401cb4	-0.1876095
177	0x3d3ad176	0.045609914
178	0xbd9159b3	-0.07097187
179	0xbca02272	-0.019547675
180	0xbe82f2f8	-0.25575995
181	0x3d0ced96	0.034406267
182	0x3ac890bf	0.0015301927
183	0xbe87bcf7	-0.26511356
184	0x3d7f001d	0.062255967
185	0x3ecdc851	0.40191892
186	0x3db79ad5	0.08965079
187	0x3dcc4202	0.099735275
188	0x3dc5ca85	0.09657768
189	0xbe1ac38f	-0.15113662
190	0x3e62652b	0.22108905
191	0x3ea6e1cf	0.32594153
192	0xbdacbb4f	-0.08434164
193	0x3e97f923	0.29682264
194	0xbdf51dc9	-0.11968572
195	0xbe346253	-0.17615633
196	0x3c89e57f	0.016833065
197	0x3d37670e	0.044776015
198	0xbe983733	-0.29729614
199	0x3e1d47d2	0.15359429
200	0x3d9056a2	0.07047774
201	0xbdf84e49	-0.12124307
202	0x3dd9733d	0.10617683
203	0x3dde3891	0.10850633
204	0x3e92a9f9	0.28645304
205	0x3e1e0ded	0.15435
206	0xbe80ff02	-0.25194556
207	0x3e43425a	0.1906828
208	0x3e098ec2	0.13433364
209	0xbda20d04	-0.07912639
210	0x3e708e08	0.2349168
211	0xbe8cfcc3	-0.27536592
212	0x3cae604a	0.021286149
213	0x3e83e2d2	0.25758988
214	0xbe8dd477	-0.2770116
215	0xbeab1cb9	-0.3342035
216	0x3e595627	0.21224271
217	0xbbb932f7	-0.0056518274
218	0xbe5c613c	-0.21521467
219	0x3e91180c	0.2833866
220	0xbdcb6c52	-0.0993277
221	0x3d4cf1bd	0.050035227
222	0x3dd017c6	0.101607844
223	0xbe308e53	-0.17241792
224	0x3ea5c612	0.32377678
225	0xbe408bd6	-0.18803343
226	0xbdf97722	-0.12180926
227	0xbe3c6991	-0.18399645
228	0xbd686e5e	-0.05674588
229	0x3e2e693d	0.17032333
230	0x3e7efd3d	0.2490129
231	0xbd8079e5	-0.062732495
232	0x3dbd4d1a	0.092432216
233	0x3e662c76	0.22477898
234	0xbeab6af1	-0.33480027
235	0x3e02f2c8	0.12787926
236	0x3e0a09f0	0.13480353
237	0xbe63decb	-0.22252958
238	0x3da969a4	0.082721025
239	0x3caf23e5	0.02137942
240	0xbd830dcd	-0.06399117
241	0xbe3b82b1	-0.18311574
242	0xba940aac	-0.0011294684
243	0x3d11f632	0.03563518
244	0x3d2cc3c8	0.0421789
245	0x3d6c7d4c	0.05773668
246	0xbe035df9	-0.12828816
247	0xbc97174d	-0.018443728
248	0x3e67a90e	0.22623083
249	0xbd3a911f	-0.045548555
250	0x3e47aa95	0.19498666
251	0xbd5f4ae3	-0.054514777
252	0x3dfd779e	0.12376331
253	0xbd682b45	-0.05668189
254	0xbe4339f7	-0.1906508
255	0xbdc306ec	-0.095228046

bias f4 [64]
0	0xbe1fbd88	-0.15599644
1	0xbccb0c50	-0.024786144
2	0xbdb371f4	-0.08761969
3	0xbd00fe32	-0.03149242
4	0x3d8b9fa8	0.068175614
5	0x3e0ae3ef	0.13563512
6	0x3e55558e	0.20833418
7	0xbd52616e	-0.051362447
8	0xbdf9b0ee	-0.1219195
9	0x3df3f355	0.11911646
10	0x3e3c2a74	0.1837557
11	0x3e44ec9b	0.19230883
12	0x3d8ae6f8	0.06782335
13	0x3e0f27f4	0.13980085
14	0xba802f7d	-0.0009779778
15	0xbd8c24cc	-0.06842956
16	0xbd3d66a7	-0.046240475
17	0xbe0507a7	-0.129912
18	0x3d8856a0	0.066571474
19	0x3d648814	0.055793837
20	0x3d09ca64	0.03364028
21	0x3d6ed927	0.05831256
22	0xbe02456a	-0.12721792
23	0x3d9f6780	0.07783413
24	0x3e35a5f7	0.17739092
25	0x3e0b7e57	0.13622414
26	0xbc873f39	-0.01650964
27	0xbd57d973	-0.05269761
28	0xbdb44057	-0.08801334
29	0x3d506b68	0.05088368
30	0xbd8a8772	-0.067641154
31	0x3e3fd98f	0.18735336
32	0x3d22401c	0.03961192
33	0xbe109d5b	-0.14122526
34	0xbc14f0be	-0.009090601
35	0xbd9b8797	-0.07594221
36	0xbdf334d7	-0.11875313
37	0xbd9cf755	-0.07664362
38	0xbe16ffd1	-0.14746024
39	0x3d8f3fa0	0.069945574
40	0xbd75d197	-0.060014334
41	0x3ddcc2d1	0.10779346
42	0xbdd5ae8f	-0.10433685
43	0xbcf4df11	-0.029891523
44	0xbcda8546	-0.026674878
45	0xbb18efe2	-0.002333634
46	0xbdfa2dbb	-0.12215754
47	0xbd6bd364	-0.057574645
48	0x3ce7492f	0.028233139
49	0xbe36e6d8	-0.17861497
50	0x3e35518c	0.17706889
51	0x3e11b255	0.14228185
52	0x3dbb43b9	0.091437764
53	0x3deb978c	0.11503515
54	0xbde06a7b	-0.109578095
55	0x3cac6c9b	0.02104788
56	0x3d1485fc	0.03626059
57	0x3e2afb0f	0.16697334
58	0xbe3f1635	-0.18660815
59	0xbd85d3a3	-0.06534507
60	0x3dc26957	0.09492748
61	0x3dcdacfd	0.100427605
62	0xbe48b67f	-0.19600867
63	0x3e3e5efd	0.18590923

weight f4 [64, 64, 3, 3]
0	0xbd66c033	-0.05633564
1	0x3c91dd0d	0.0178056
2	0x3e64973e	0.2232332
3	0xbc23fc19	-0.010008835
4	0x3ca8488e	0.02054241
5	0xbbc3292d	-0.0059558363
6	0xbd1bbb96	-0.038020693
7	0xba7b435c	-0.00095849275
8	0x3de6722d	0.11252246
9	0x3d6d30d2	0.057907887
10	0x3d6176cd	0.055044938
11	0xbceda0f4	-0.029007412
12	0x3ca473d6	0.020074766
13	0x3db9d165	0.09073142
14	0x3cab1fc5	0.020889172
15	0xbc8decc1	-0.017324807
16	0xba9b2210	-0.0011835713
17	0xbd7a4856	-0.06110414
18	0x3d0a22eb	0.033724707
19	0x3d7197f5	0.05898281
20	0xbcaa8dc5	-0.020819554
21	0xbd838ea1	-0.06423689
22	0xbc74bad2	-0.01493712
23	0x3b782451	0.0037863443
24	0xbd06b915	-0.03289135
25	0x3ce3290d	0.027729535
26	0xbd2c3d72	-0.042050786
27	0xbdebb45b	-0.115090095
28	0xbbf54a5e	-0.007485672
29	0xbb7398a9	-0.003716985
30	0x3cef9c3e	0.029249307
31	0xbd4fab53	-0.050700497
32	0x3d2d2c5e	0.04227864
33	0x3ded7501	0.11594582
34	0x3b408cd1	0.0029380808
35	0x3cda1ea0	0.026625931
36	0xbd5dda6a	-0.054163374
37	0xbdb50761	-0.08839298
38	0x3d2abe61	0.041685466
39	0x3d7a20e4	0.061066523
40	0xbcbd741c	-0.023126654
41	0xbd780b25	-0.060557503
42	0xbde570e2	-0.11203171
43	0x3d4155a5	0.047200818
44	0x3c96cfbc	0.018409602
45	0x3b94e391	0.0045437296
46	0x3ddbb4a1	0.107278116
47	0xbcc4b8d3	-0.024013912
48	0x3d898814	0.06715408
49	0x3bd3f127	0.0064679566
50	0x3d16eed8	0.036848873
51	0x3bf74712	0.007546314
52	0x3cbea518	0.023272082
53	0x3d34d48b	0.04414801
54	0xbd93130e	-0.07181369
55	0x3d9d8a1f	0.0769236
56	0xbd330268	-0.043703467
57	0xbd15f3ca	-0.03660945
58	0x3d1ad853	0.03780396
59	0xbd8a9155	-0.06766001
60	0x3d222072	0.039581724
61	0xbc1df136	-0.009640029
62	0x3c4a3c29	0.012343445
63	0xbcb34328	-0.021882609
64	0x3cb894d2	0.0225319
65	0x3d2d55f3	0.042318296
66	0x3d56e27d	0.05246209
67	0x39edad98	0.000453335
68	0x3d065387	0.0327945
69	0x3cfeb700	0.03109312
70	0xbe054f0d	-0.13018437
71	0xbc198d61	-0.009372086
72	0xbd503bf8	-0.05083844
73	0xbd7ad344	-0.061236635
74	0x3d36db7b	0.044642907
75	0xbe1d110d	-0.15338536
76	0x3dc83983	0.097765945
77	0x3bb9eb0c	0.0056737717
78	0x3d7fc37a	0.06244228
79	0x3d07c28f	0.03314453
80	0x3da913ee	0.082557544
81	0xbc9a3427	-0.018823696
82	0xbdc3114c	-0.095247835
83	0xbd0f9963	-0.03505839
84	0xbd8f68a1	-0.07002378
85	0xbd7ccc4d	-0.061718274
86	0xbc86f947	-0.016476287
87	0xbc11cc0f	-0.008898749
88	0xbdaaef7a	-0.08346458
89	0xbcef5393	-0.029214656
90	0xbdafbfd4	-0.0858151
91	0x3c89e281	0.016831638
92	0xbd468d38	-0.04847452
93	0xbd03a2d5	-0.03213771
94	0x3c550017	0.01300051
95	0xbd132640	-0.03592515
96	0xbd954594	-0.072886616
97	0x3d2a35e9	0.04155532
98	0x3c81aac9	0.015828507
99	0x3da33ac1	0.07970191
100	0xbd1939fe	-0.03740882
101	0xbd608e4d	-0.05482321
102	0xbd375691	-0.04476029
103	0xbca41f74	-0.02003453
104	0xbd1a4e02	-0.03767205
105	0xbbeae2ec	-0.0071681645
106	0xbab13eff	-0.0013522803
107	0x3c2e60ae	0.010643167
108	0x3da86477	0.08222287
109	0xbdaa3c91	-0.083123334
110	0xbce34364	-0.027742095
111	0x3c4c9921	0.012487681
112	0xbdcd07e2	-0.10011269
113	0x3c8b6ed5	0.017020622
114	0xbcc161b6	-0.023606163
115	0x3d082297	0.033236112
116	0xbd947e4f	-0.07250654
117	0xbd547523	-0.051869523
118	0xbdb43d02	-0.08800699
119	0x3b1d2fa6	0.00239847
120	0x3d5e65d2	0.054296322
121	0xbbdce400	-0.006741047
122	0xbd181d6d	-0.037137438
123	0xbd53d522	-0.05171693
124	0xbd65fa1c	-0.056146726
125	0xbd2fb313	-0.042895388
126	0xbd628111	-0.05529887
127	0x3d30273c	0.043006167
128	0x3d9b91c4	0.07596162
129	0xbd49e5ec	-0.049291536
130	0x3c8e6ff4	0.017387368
131	0x3ca7d375	0.020486573
132	0x3d39af4c	0.04533319
133	0xbda74e4d	-0.081692316
134	0xbc5258a7	-0.012838519
135	0xbdd3e6ce	-0.10346757
136	0xbd0ff5d4	-0.03514655
137	0xbde6b76e	-0.11265455
138	0xbda4fef5	-0.08056442
139	0x3c18b31e	0.009320049
140	0xbe455f1e	-0.19274566
141	0x3cd50d3b	0.026007285
142	0x3d964aed	0.0733851
143	0xbe2886e8	-0.16457713
144	0x3d97742c	0.07395205
145	0x3ca96b65	0.020681093
146	0xbd27eacb	-0.0409954
147	0x3c6943c6	0.01423735
148	0xbde67824	-0.11253384
149	0x3bce5da7	0.0062977853
150	0xbd94671c	-0.07246229
151	0xbd4d3d5a	-0.050107338
152	0x3af0f852	0.0018384552
153	0x3d8c769a	0.06858559
154	0x3d4bdd13	0.04977138
155	0xbd401f40	-0.046904802
156	0x3cb60bc4	0.022222407
157	0xbd1ec243	-0.03875948
158	0x3ced18e2	0.02894253
159	0xbc4eea65	-0.012629126
160	0xbced0cac	-0.028936706
161	0xbd639918	-0.055565923
162	0x3d9e6ae0	0.077352285
163	0x3c160bc2	0.009158077
164	0xbd11de1e	-0.035612218
165	0x3d56a767	0.05240574
166	0x3da8f7dd	0.08250401
167	0xbbec2bba	-0.007207361
168	0x3d9957b5	0.07487432
169	0x3bbdfdea	0.005798091
170	0x3df96680	0.121777534
171	0xbdd123a2	-0.102118745
172	0xbd6a4cc9	-0.057202134
173	0xbe528768	-0.20559466
174	0xbde72b5b	-0.11287566
175	0xbd3c2e73	-0.045942735
176	0x3bc1f99f	0.0059196497
177	0xbdcbb03d	-0.09945724
178	0xbb8c5ea8	-0.004283745
179	0xbd0da2b2	-0.034578986
180	0x3c9d111d	0.0191732
181	0xbd9a72bd	-0.07541416
182	0x3c5dda88	0.013540871
183	0xbde1ed46	-0.110315844
184	0xbda7f2a4	-0.08200577
185	0xbd124bda	-0.03571687
186	0xbcd68d37	-0.026190383
187	0xbcf11fc7	-0.029434098
188	0xbe0e8cbf	-0.13920878
189	0x3ca949f6	0.02066515
190	0xbc955f40	-0.018233895
191	0xbd47b5b9	-0.04875729
192	0x3d717879	0.058952782
193	0x3d971682	0.0737734
194	0x3dc65120	0.09683442
195	0x3cda2e20	0.026633322
196	0x3dc89b16	0.09795205
197	0xba950787	-0.0011370041
198	0xbdf766ac	-0.1208013
199	0xbcf42ec8	-0.029807463
200	0x3a2c5efe	0.0006575434
201	0xbbbeab72	-0.0058187777
202	0xbd051af3	-0.032496404
203	0x3c50a201	0.012733937
204	0xbd9f4330	-0.07776487
205	0xbd198ee8	-0.0374898
206	0xbd53412d	-0.05157583
207	0xbd65959a	-0.056050874
208	0x3cf0920b	0.029366514
209	0x3daf23e4	0.085517675
210	0xbd2b34dd	-0.04179846
211	0x3d2b34d9	0.041798446
212	0xbce3e4e5	-0.027819106
213	0xbc1c828c	-0.009552609
214	0xbcf96e88	-0.030448213
215	0xbd47d936	-0.048791133
216	0xbbb0a19c	-0.005390359
217	0x3c73d6ba	0.014882738
218	0xbc5bf04e	-0.013423992
219	0x3d575418	0.052570432
220	0xbcf816dc	-0.030284338
221	0x3c69a769	0.014261105
222	0xbd3e0852	-0.046394654
223	0x3c87d526	0.01658113
224	0xbcf5d295	-0.03000764
225	0xbb358214	-0.002769594
226	0x3d60664d	0.05478506
227	0x3bea9f2e	0.007160089
228	0x3ca84421	0.020540299
229	0x3c2cdff7	0.010551444
230	0xbdfa0e65	-0.12209777
231	0x3d004b66	0.031321906
232	0x3d9f7c38	0.07787365
233	0x3d51258b	0.051061194
234	0x3d65b4da	0.056080677
235	0xbd85cb78	-0.06532949
236	0x3df6ea15	0.12056366
237	0xbc89b0e2	-0.016807977
238	0xbdc38489	-0.095467634
239	0xbad98500	-0.0016595423
240	0x3c2093ef	0.009800895
241	0xbcd865c4	-0.026415713
242	0xbbf53c76	-0.007484014
243	0x3d134016	0.03594979
244	0x3d36e214	0.0446492
245	0xbd5f4d91	-0.054517332
246	0xbd594dd9	-0.053052757
247	0xbd1c9edf	-0.03823745
248	0x3cc361da	0.02385037
249	0x3d12b1cf	0.035814103
250	0xbcc57d16	-0.024107497
251	0x3bcb3ff3	0.0062026917
252	0x3e0bd1ef	0.13654302
253	0xbe0b009e	-0.13574454
254	0x3bf5b533	0.0074984073
255	0xbda4e0ab	-0.080506645

bias f4 [64]
0	0xbccc831c	-0.024964862
1	0xbd0bcb34	-0.034129336
2	0x3d1abeb5	0.03777953
3	0xbcc38836	-0.023868661
4	0x3cc184e7	0.023622943
5	0xbb8330de	-0.004003628
6	0x3cd91063	0.026497072
7	0xbd18c7db	-0.037299972
8	0x3c6e7279	0.01455366
9	0x3c8c18ae	0.017101612
10	0xbba5e67e	-0.005062877
11	0xbd3656c3	-0.044516336
12	0x3a4226e7	0.00074063096
13	0x3cb8ebee	0.022573438
14	0x3c499e9b	0.012305881
15	0x3d06cf18	0.032912344
16	0x3ca08439	0.019594299
17	0x3c4178f4	0.011808623
18	0xbc0b74d8	-0.008511744
19	0xbc76088d	-0.015016687
20	0x3ca1256f	0.01967117
21	0xbbf7bcdf	-0.007560357
22	0x3d3677e3	0.044547927
23	0xbce52f4b	-0.027976653
24	0x3c321dbe	0.010871349
25	0xbc9eab07	-0.019368662
26	0xbc51c150	-0.012802437
27	0x3ca0de6e	0.019637313
28	0xbced072e	-0.028934088
29	0x3cdd1c28	0.026990965
30	0xbb086a05	-0.0020815146
31	0x3c7db7df	0.015485733
32	0xbd3cdd2b	-0.04610936
33	0xbd03512e	-0.03205984
34	0xbcad5744	-0.021159776
35	0x3b36d723	0.0027899228
36	0xbd28b8af	-0.041191753
37	0x3d2c803d	0.042114485
38	0x3c7bca71	0.01536809
39	0xbc842ea5	-0.016135523
40	0x3d066be2	0.03281773
41	0x3be84a94	0.0070889685
42	0xbc9ac5df	-0.01889318
43	0xbccc5199	-0.024941253
44	0xbd427073	-0.04747052
45	0x3d4eb0a4	0.050461426
46	0x3d1c15b4	0.038106635
47	0xbd0feb26	-0.035136364
48	0xbc1f3884	-0.009718064
49	0xb9dfd40f	-0.0004269187
50	0x3ced67e5	0.028980205
51	0xbcdfeef8	-0.027335629
52	0xba87996e	-0.0010345408
53	0xbd1eced9	-0.038771484
54	0xbcd8ff4e	-0.026488926
55	0x3ca23eb2	0.019805286
56	0xbd028bc9	-0.03187159
57	0x3ca522f3	0.020158267
58	0x3c537ee8	0.012908675
59	0x3cc02de5	0.023459384
60	0xbb0eef41	-0.0021810087
61	0xbd24eb26	-0.040263318
62	0x3ccf6776	0.025317889
63	0xbadbe10f	-0.0016775447

weight f4 [32, 64, 3, 3]
0	0xbd07ada4	-0.03312458
1	0x3d9138f5	0.07090942
2	0xbdda78dd	-0.10667584
3	0xbd13c6b1	-0.03607816
4	0x3db9c979	0.09071631
5	0x3c3d0c58	0.0115385875
6	0xb80a354b	-3.2951397e-05
7	0x3db1f356	0.08688991
8	0x3c492db3	0.012278962
9	0x3d6eef22	0.058333524
10	0x3dbd10cd	0.0923172
11	0x3d80678a	0.062697485
12	0x3de33787	0.110945754
13	0x3d177659	0.0369781
14	0xbc757a14	-0.014982719
15	0xbd89e376	-0.06732838
16	0x3d91305b	0.07089301
17	0xbd2e2baf	-0.04252213
18	0xbd9e80c3	-0.07739403
19	0x3d833d24	0.06408146
20	0xbcd9d434	-0.026590444
21	0xbd6eea93	-0.058329176
22	0x3dc90610	0.098156095
23	0x3e37b93b	0.17941754
24	0x3d879ca0	0.06621671
25	0x3e007bbc	0.12547201
26	0xbb2a24a2	-0.0025961776
27	0x3cb29b5d	0.021802599
28	0x3c669b3b	0.014075096
29	0x3d525783	0.05135299
30	0xbce64938	-0.028111085
31	0x3d82ac7c	0.06380555
32	0xbd01d95c	-0.03170143
33	0x3d194f9b	0.037429433
34	0xbce64294	-0.028107919
35	0xbc5a91cb	-0.013340424
36	0xbc9006ea	-0.017581422
37	0x3d10d6ab	0.035360973
38	0x3d2200bf	0.039551493
39	0xbd8e1c2a	-0.069389656
40	0x3beced85	0.007230463
41	0x3c61961b	0.013768698
42	0x3d45dc6f	0.048305925
43	0xbcf9886a	-0.030460555
44	0x3df1452c	0.117807716
45	0x3dcc8b1c	0.099874705
46	0x3d2a00f4	0.041504815
47	0x3dd2c0c9	0.10290677
48	0xbe040931	-0.12894131
49	0xbd756db7	-0.059919085
50	0x3c7fb613	0.015607375
51	0x3c8c35c9	0.01711549
52	0x3ce18d5a	0.027533222
53	0x3bb23e12	0.0054395283
54	0x3d9a7655	0.07542101
55	0xbd8ffbf0	-0.07030475
56	0xbc9ec0b6	-0.019379001
57	0xbd85b564	-0.06528738
58	0x3d17b4f3	0.0370378
59	0xbd644259	-0.055727337
60	0x3d25624d	0.04037695
61	0xbb9bdf4c	-0.0047568437
62	0xbd9a3042	-0.07528736
63	0x3c70ae34	0.014689971
64	0x3d33d75d	0.04390656
65	0x3cda04c8	0.026613608
66	0x3d87ac16	0.0662462
67	0x3dc5b1b0	0.09653032
68	0x3c8b1902	0.016979698
69	0x3d187a34	0.037225917
70	0xbd0d9def	-0.034574445
71	0xbd211aa4	-0.039332047
72	0x3bb2d0ad	0.005457005
73	0xbc67ab88	-0.014140017
74	0x3dce83af	0.100837104
75	0xbcadaca2	-0.021200482
76	0xbca3c540	-0.019991517
77	0xbdebcc8a	-0.11513622
78	0x3da9c4b0	0.08289468
79	0x3c8e00e6	0.017334413
80	0xbde0830d	-0.10962496
81	0x3cba733c	0.022760026
82	0xbcb1a33b	-0.02168428
83	0xbcbec2d4	-0.02328626
84	0x3b341e4a	0.0027483874
85	0x3cefc869	0.029270368
86	0x3ccb496a	0.02481528
87	0x3cf100e3	0.029419368
88	0xbcec505b	-0.02884691
89	0xbcb4389b	-0.021999648
90	0xbd55d937	-0.052209105
91	0x3d7cb093	0.06169183
92	0x3d50471d	0.05084907
93	0x3cccfd01	0.025022985
94	0x3cdc1677	0.02686618
95	0x3da09e1b	0.07842656
96	0x3dddca2a	0.10829575
97	0x3e41c620	0.18923235
98	0xbd977a46	-0.07396369
99	0xbdbc0c5b	-0.09182044
100	0x3cefe703	0.02928496
101	0x3def7e00	0.116939545
102	0xbd98ecd2	-0.07467045
103	0xbd05fc3d	-0.032711256
104	0x3d949b0b	0.072561346
105	0xbd8c0a33	-0.06837883
106	0x3d02eba4	0.031963006
107	0xbcc68114	-0.024231471
108	0x3d2d0f00	0.042250633
109	0xbbaf3a1c	-0.0053475033
110	0xbce15e5d	-0.027510816
111	0x3cdaff83	0.026733166
112	0x3c8eec8a	0.017446775
113	0x3da9e41a	0.0829546
114	0xba3d749e	-0.0007227155
115	0xbd5a40d0	-0.053284466
116	0xbcee4427	-0.029085232
117	0xbd0a14ae	-0.033711128
118	0xbc51f67b	-0.012815113
119	0xbc4bb8e1	-0.012434215
120	0x3c53d844	0.01292998
121	0x3e1bc505	0.15211876
122	0x3cfbad97	0.030722423
123	0xbc352c0b	-0.011057864
124	0x3cf5c0fa	0.029999245
125	0x3ce1ec9c	0.027578644
126	0xbc8ece8e	-0.017432477
127	0x3d2b0029	0.0417482
128	0xbb952a1b	-0.0045521385
129	0x3dab2653	0.08356919
130	0xbd6d2e32	-0.057905383
131	0xbc9f9d72	-0.019484255
132	0x3c4abac8	0.012373634
133	0x3c4aabf3	0.012370097
134	0xbcd58c10	-0.026067764
135	0xbc3c99a6	-0.011511242
136	0x3c93bc18	0.018034026
137	0x3d490d60	0.04908502
138	0x3d770fb8	0.060317725
139	0x3bc1123a	0.0058920654
140	0xbdb50ae7	-0.0883997
141	0xbd499c5d	-0.049221385
142	0xbc0c6825	-0.008569752
143	0x3d964afd	0.07338522
144	0xbc9b4ac2	-0.018956546
145	0x3dbf4992	0.09340204
146	0xbd968c1c	-0.073509425
147	0xbdc9dc4a	-0.0985647
148	0x3dcd0236	0.10010187
149	0xbb939449	-0.004503761
150	0x3c14c9d4	0.009081323
151	0xbc9b59d8	-0.01896374
152	0x3dcee620	0.101024866
153	0x3ccba168	0.024857238
154	0x3df9bf82	0.1219473
155	0x3dbd5160	0.09244037
156	0x3bc646a1	0.0060509
157	0x3d8e60cb	0.069520555
158	0x3de656c9	0.11247022
159	0xbd435421	-0.047687653
160	0xbcd3c73e	-0.025851842
161	0x3c804f37	0.015662773
162	0x3d8aea06	0.06782918
163	0x3b171477	0.002305297
164	0x3c269b20	0.010168821
165	0x3d8f4b55	0.0699679
166	0x3bae1c02	0.0053133974
167	0x3d8c9517	0.06864374
168	0xbb5d1541	-0.0033734592
169	0x3cbb9182	0.022896532
170	0x3c14e84f	0.00908859
171	0x3bfbabae	0.007680378
172	0x3cfe5ef5	0.031051138
173	0xbc1137b6	-0.00886338
174	0x3d806f42	0.06271221
175	0x3d468cf0	0.048474252
176	0xbc490e99	-0.012271547
177	0xbdbd198f	-0.092333905
178	0x3d6e1ecf	0.05813485
179	0xbda161db	-0.078799926
180	0xbd95ce4c	-0.07314739
181	0xbdb53e5a	-0.08849783
182	0x3db06595	0.08613125
183	0x3d98654c	0.07441196
184	0xbd51e007	-0.05123904
185	0x3d234d94	0.039868906
186	0xbd81511e	-0.063143
187	0x3d538697	0.051642027
188	0xbcf71e8d	-0.030165935
189	0x3ba4e766	0.0050324677
190	0xbca39fee	-0.019973721
191	0x3de6aaac	0.11263022
192	0x3c75ca1b	0.015001799
193	0x3dcaef93	0.099089764
194	0x3c892fae	0.016746368
195	0x3d7c8de4	0.061658755
196	0xba928f6e	-0.0011181661
197	0xbd8e6b62	-0.069540754
198	0x3b5fd4ad	0.0034153864
199	0xbdf1685e	-0.117874846
200	0xbc199015	-0.009372731
201	0xbd8c7045	-0.06857351
202	0x3c8770b5	0.016533235
203	0x3ce729a4	0.028218098
204	0x3d8aac7c	0.0677118
205	0x3d6a0c06	0.057140373
206	0xbde1f35a	-0.11032744
207	0x3c9edf1a	0.019393492
208	0x3ce8192e	0.02833232
209	0x3dc859ed	0.09782777
210	0x3bb6a527	0.005573887
211	0x3bf698c5	0.0075255358
212	0x3b6243c3	0.0034525252
213	0xbd15c022	-0.036560185
214	0xbdbc661d	-0.09199164
215	0x3c9aa430	0.018877119
216	0x3d2964a6	0.04135575
217	0x3d5cf84f	0.053947743
218	0xbdc43b27	-0.09581595
219	0xbe068798	-0.13137662
220	0x3ce764a0	0.028246224
221	0x3c0eea85	0.008722906
222	0xbc639af2	-0.013891922
223	0x3d9111a7	0.07083445
224	0x3c7002bf	0.014649092
225	0x3cc30597	0.023806376
226	0xbca61690	-0.02027443
227	0x3d9e5aaf	0.0773214
228	0xbd0740cf	-0.03302079
229	0x3d2cf1ba	0.042222716
230	0x3cbc949e	0.023020085
231	0xbd8a1f95	-0.06744305
232	0xbdb45588	-0.08805376
233	0x3d68f797	0.056876745
234	0x3d82fae4	0.0639551
235	0x3d6ce93e	0.057839625
236	0xbd7eb3fe	-0.062183373
237	0x3b5c1a9e	0.00335852
238	0xbdae9530	-0.08524549
239	0x3db4a7f0	0.08821094
240	0xbd359e5b	-0.044340473
241	0x3da2277a	0.07917686
242	0xbd98d0a6	-0.074616715
243	0x3c870604	0.01648236
244	0x3da7bcb7	0.081902914
245	0x3dc1bd16	0.094598934
246	0xbd77fc53	-0.06054337
247	0x3df68264	0.12036589
248	0x3d911d98	0.07085723
249	0xbdb1451b	-0.08655759
250	0x3e379c8e	0.17930815
251	0xba968756	-0.0011484425
252	0xbd050059	-0.032471035
253	0xbd490d75	-0.0490851
254	0x3cb391d6	0.021920126
255	0x3d34800a	0.04406742

bias f4 [32]
0	0xbc0af00a	-0.008480081
1	0xbcb6c391	-0.02231005
2	0x3b7ba1ef	0.003839608
3	0xbd113720	-0.035452962
4	0xbbda6fd1	-0.0066661616
5	0x3c6eea1f	0.014582186
6	0x3769498e	1.3905008e-05
7	0xbd06bfb1	-0.032897655
8	0xbcba864f	-0.022769121
9	0xbd001665	-0.031271357
10	0xb9c67f2c	-0.00037860253
11	0x3c5c4c0e	0.013445867
12	0x3d0570b0	0.03257817
13	0x3bdadb69	0.0066789878
14	0xbc820291	-0.015870364
15	0xbc115878	-0.00887119
16	0xbc0a00d0	-0.008423045
17	0x3c27a568	0.010232307
18	0xbd27caf2	-0.040965028
19	0x3cb37453	0.021906054
20	0x3d086f24	0.033309117
21	0xbc0a365e	-0.008435814
22	0xbd041177	-0.03224322
23	0xbcacbdf3	-0.021086669
24	0x3c7dac36	0.015482953
25	0x3cd1954e	0.02558389
26	0x3bd96c4e	0.0066352254
27	0xbc94448f	-0.018099098
28	0xbc566985	-0.013086681
29	0x3cc30c20	0.023809493
30	0x3d015dc4	0.031583562
31	0x3d2e52c8	0.042559415

weight f4 [9, 32, 3, 3]
0	0x3d56e8a6	0.052467965
1	0x3d4be785	0.04978134
2	0xbc43fb5e	-0.011961786
3	0xbae4dd8a	-0.0017461043
4	0x3c8d5f99	0.017257499
5	0xbdbf6ac3	-0.09346535
6	0x3caec19d	0.021332556
7	0x3b4c2f2f	0.0031156053
8	0xbd826a0b	-0.06367882
9	0xbd200d44	-0.03907515
10	0xbd5b528b	-0.053545516
11	0x3df20c0a	0.118187025
12	0xbe188564	-0.14894634
13	0x3d04d81a	0.032432653
14	0xbd4c0347	-0.049807813
15	0xbc3411a1	-0.010990531
16	0x3d93edf8	0.07223123
17	0xbcd08931	-0.025456043
18	0xbd061a51	-0.03273994
19	0x3dc7ea9c	0.09761545
20	0xbd1d85a7	-0.03845754
21	0x3d973d01	0.073846824
22	0xbde02e73	-0.109463595
23	0xbd784053	-0.06060822
24	0x3c831645	0.01600183
25	0x3cd53db7	0.026030404
26	0xbd32aed9	-0.04362378
27	0xbc5f40d7	-0.013626299
28	0xbd8d340b	-0.06894692
29	0x3d333551	0.04375202
30	0x3bb253ab	0.005442103
31	0x3db1cdf5	0.08681861
32	0xbcd5a58a	-0.026079912
33	0x3dbc3f6e	0.09191786
34	0xbd17ea23	-0.037088525
35	0x3e09fe01	0.13475801
36	0xbd27e9d4	-0.04099448
37	0x3ccb99b7	0.02485357
38	0xbd2782c1	-0.04089618
39	0x3d907ba1	0.0705483
40	0xbcc521a5	-0.024063895
41	0x3d83157d	0.06400583
42	0x3dc911bd	0.098178364
43	0xbc90ad66	-0.017660808
44	0x3d90969f	0.07059979
45	0x3cddf826	0.027095865
46	0xbda39020	-0.07986474
47	0x3da9a808	0.082840025
48	0x3d28d2d0	0.04121667
49	0xbdbd6f5a	-0.09249754
50	0x3e084666	0.13308105
51	0x3dbfae59	0.09359426
52	0x3d506f79	0.05088756
53	0xbda9c34f	-0.08289205
54	0x3ce426f2	0.027850602
55	0x3d00a5bc	0.031408057
56	0x3d0cc10e	0.0343638
57	0x3c261fd3	0.010139423
58	0x3d9dd7b5	0.077071585
59	0xba317992	-0.00067701295
60	0xbd92be38	-0.071651876
61	0xbcd056a5	-0.02543194
62	0x3b862e78	0.004094895
63	0x3c0acf07	0.008472211
64	0x3deebd80	0.11657238
65	0xbc13caff	-0.009020566
66	0x3d1ecccc	0.03876953
67	0x3c084abb	0.008318598
68	0x3d0c4e3d	0.0342543
69	0x3c2d55ea	0.010579566
70	0x39e05ac8	0.00042792247
71	0xbd3273a8	-0.04356733
72	0xbdb9e2a3	-0.09076431
73	0x3da4594f	0.08024847
74	0x3bf20ff5	0.007387156
75	0x3ce32c56	0.027731102
76	0x3dac89a4	0.0842469
77	0xbd004bd4	-0.031322315
78	0x3e5ad031	0.21368481
79	0x3d800d6b	0.06252559
80	0x3aed7680	0.0018116981
81	0x3e1943dd	0.14967294
82	0x3c21077d	0.0098284455
83	0x3d2bd6bb	0.04195283
84	0xbcea2ad6	-0.028584879
85	0xbd638a21	-0.055551652
86	0xbd1412b3	-0.036150645
87	0x3cc796c6	0.024363887
88	0xbde35e06	-0.11101918
89	0x3da790f0	0.081819415
90	0x3d288ff0	0.041152894
91	0xbc655dca	-0.013999412
92	0x3c307643	0.010770383
93	0x3d876a7a	0.06612106
94	0x3d9f9344	0.077917606
95	0x3bb2326a	0.0054381387
96	0xbdd5397b	-0.10411354
97	0x3c048259	0.008087718
98	0xbcc10b63	-0.023565
99	0x3d34c1b5	0.044130046
100	0x3d2614c6	0.040547155
101	0xbc69058e	-0.014222516
102	0xbd7569d8	-0.059915394
103	0xbc799137	-0.015232376
104	0xbbb9eb8b	-0.005673831
105	0xbbecd4d5	-0.00722752
106	0xbac6f348	-0.0015178705
107	0x3d7f0ff2	0.062271066
108	0x3d85d8f7	0.065355234
109	0x3cb98b98	0.022649571
110	0x3d0afe99	0.03393421
111	0xbd682357	-0.056674328
112	0x3dd35a2c	0.10319933
113	0xbcd6e78c	-0.026233457
114	0x3d8e2b2e	0.069418296
115	0xbc036143	-0.0080187945
116	0xbd413ed8	-0.047179073
117	0xbcb358cc	-0.021892928
118	0xbc81e625	-0.015856812
119	0xbd61841b	-0.055057626
120	0x3dc5202c	0.09625277
121	0x3c1313fa	0.008976931
122	0x3e0ca648	0.13735306
123	0xbbb5ba85	-0.0055459165
124	0xbd3c9770	-0.04604286
125	0x3dbca36c	0.09210858
126	0xbcb3adbd	-0.02193343
127	0xbd751be3	-0.059841048
128	0x3d945c62	0.07244183
129	0x3d4e7333	0.05040283
130	0xbd83ea3e	-0.064411625
131	0xba1fe9e0	-0.0006100219
132	0x3c151d1f	0.009101181
133	0x3e10bbeb	0.14134185
134	0x3d761e12	0.06008727
135	0xbd06c9b6	-0.03290721
136	0xbd87a26e	-0.06622778
137	0xbdc7ea95	-0.0976154
138	0x3d8f4ff8	0.06997675
139	0x3e04ef00	0.12981796
140	0x3df07799	0.117415614
141	0x3d8d6ab4	0.06905118
142	0xbbfb059b	-0.0076605803
143	0x3cfbcbb9	0.030736791
144	0x3d9dddc2	0.077083126
145	0x3d2af159	0.041734073
146	0x3d9dfa13	0.077137135
147	0xbe069e16	-0.13146242
148	0x3d5f5668	0.054525763
149	0x3d9288c7	0.071549945
150	0x3ca70726	0.02038915
151	0x3dce8abd	0.10085056
152	0xbcfcbb83	-0.030851131
153	0x3d4b6d40	0.049664736
154	0x388eafb7	6.803817e-05
155	0x3d592415	0.053012926
156	0x3c2ad054	0.010425646
157	0x3ddf9b55	0.10918299
158	0xbc0ed517	-0.008717797
159	0xba6b78c9	-0.0008982537
160	0x3d05e8ec	0.032692835
161	0x3cdb8e71	0.02680132
162	0x3c59aff9	0.013286584
163	0x3c3638e7	0.011121965
164	0x3cf3c6b0	0.029757828
165	0x3d6f7a33	0.058466148
166	0x3d6cdd6e	0.05782836
167	0xb886361c	-6.3996966e-05
168	0xbd76695e	-0.06015908
169	0x3d64dc58	0.0558742
170	0x3d69e217	0.05710038
171	0xbd0c0cde	-0.03419196
172	0x3d199443	0.03749491
173	0xbd8dc794	-0.06922832
174	0x3db8dcba	0.09026475
175	0xbd0ff142	-0.03514219
176	0x3d9a4a7e	0.075337395
177	0xbcba0485	-0.022707233
178	0xbdcd5492	-0.10025896
179	0x3e1ce33a	0.15321055
180	0xbd439393	-0.04774816
181	0x3d39baa3	0.045344006
182	0xbd1080aa	-0.035278954
183	0xbd22bfff	-0.039733883
184	0x3d9a088c	0.075211614
185	0x3e1d6aa2	0.15372708
186	0x3d043709	0.032279048
187	0xbbdcd9bc	-0.006739823
188	0xbbbd2d92	-0.0057732547
189	0x3ca1b61f	0.019740162
190	0xbcfc57a8	-0.030803517
191	0x3d87fbaa	0.06639798
192	0x3c5f8361	0.013642163
193	0xbd37034f	-0.04468089
194	0x3d0b8c10	0.03406912
195	0x3cc6a7e3	0.024249977
196	0xbdd7fde8	-0.10546476
197	0x3d323b5f	0.043513652
198	0x3b7ed8f5	0.003888664
199	0xbc940993	-0.018070972
200	0xbc549666	-0.012975311
201	0x3dc5940c	0.09647378
202	0xbceb3815	-0.028713265
203	0x3ca517e9	0.020153003
204	0xbb370941	-0.00279291
205	0x3d51d637	0.05122968
206	0xbbe182fc	-0.0068820696
207	0xbb0b7ef8	-0.0021285396
208	0xbc857a06	-0.016293537
209	0xbb3d139d	-0.0028850802
210	0xbb1f28d7	-0.0024285817
211	0xbd1def79	-0.038558457
212	0xbcbc53b8	-0.022989139
213	0x3d67234b	0.056430142
214	0x3c5aeffd	0.013362882
215	0x3c15bffb	0.00914001
216	0x3dfb46cb	0.12269362
217	0xbdaf44e2	-0.0855806
218	0x3c90da68	0.01768227
219	0x3cec17fb	0.028820029
220	0xbd513cf7	-0.05108353
221	0x3d39dd45	0.045377035
222	0x3d23766d	0.03990786
223	0xbd9e7879	-0.07737822
224	0x3d93c337	0.07214969
225	0x3d04e84f	0.03244811
226	0x3e015d74	0.12633306
227	0x3d9b5de5	0.07586268
228	0xbcd1ce39	-0.02561103
229	0x3c7090d6	0.014682969
230	0xbd34e163	-0.044160258
231	0x3c5b9a99	0.013403558
232	0x3debf374	0.115210444
233	0x3d2a7d24	0.04162325
234	0xbe432c3d	-0.19059844
235	0x3d05bc3a	0.03265021
236	0xbc95f8af	-0.018307058
237	0x3dc6a952	0.09700264
238	0x3d702bd4	0.058635548
239	0xbbebf6d8	-0.007201057
240	0x3ba90560	0.0051581115
241	0xbc30e971	-0.010797844
242	0x3d2fbcbb	0.042904597
243	0xbccf329c	-0.025292687
244	0xbcc82d7a	-0.024435747
245	0xbb11fa73	-0.0022274524
246	0xbc4bdd52	-0.012442904
247	0x3ccb46fa	0.024814118
248	0x3d387fdc	0.04504381
249	0xbbf77773	-0.0075520813
250	0xbdaa9ae0	-0.08330321
251	0xbcd46486	-0.02592684
252	0x3dd6430c	0.10462007
253	0xbd93eaec	-0.07222542
254	0x3c94c412	0.0181599
255	0x3bc7d340	0.006098181

bias f4 [9]
0	0x3ca7a120	0.020462573
1	0x3d01afdd	0.031661857
2	0x3d087c18	0.03332147
3	0x3c85c06a	0.016327102
4	0x3d53d6b7	0.05171844
5	0x3ce63100	0.028099537
6	0x3cf85556	0.030314129
7	0xbce43a91	-0.027859958
8	0xbca5a0b8	-0.020218238
