django_project/uploads/core/model_epoch_3.pth (torch_old, 234228 bytes, 8 tensors)

conv1.weight f4 [64, 1, 5, 5]
0	0x3e8a0cd6	0.26962918
1	0x3e441d6e	0.19151852
2	0xbb88a7b6	-0.0041703833
3	0x3e06ad14	0.13151962
4	0x3e052924	0.13003975
5	0xbe31a2ac	-0.1734721
6	0x3db9a274	0.090641886
7	0xbdebf8d8	-0.115220726
8	0x3e627cf6	0.22117981
9	0x3db141f8	0.08655161
10	0x3d2ace68	0.04170075
11	0xbcb4a062	-0.022049133
12	0xbe29a28e	-0.16565916
13	0xbdbf4d16	-0.09340875
14	0x3dbc41b9	0.09192223
15	0xbe5d7566	-0.21626815
16	0x3e8ce6ec	0.2751993
17	0x3ddcbacc	0.10777816
18	0xbe5d0051	-0.21582152
19	0x3e8efd50	0.27927637
20	0xbe07b2ee	-0.1325185
21	0x3e36bcd5	0.17845471
22	0x3f06c07f	0.52637476
23	0x3e0f45c6	0.1399146
24	0xbdc9e03a	-0.09857221
25	0xbe7789a9	-0.24173607
26	0xbcd4862e	-0.025942888
27	0x3d2cd3b0	0.04219407
28	0x3e400663	0.18752436
29	0xbcfacf2f	-0.030616371
30	0xbb566885	-0.0032716107
31	0x3e2c3c1b	0.16819803
32	0x3e49cebc	0.19707769
33	0x3d91647e	0.070992455
34	0xbdc7921b	-0.09744664
35	0xbd8efc1b	-0.06981679
36	0x3d9cf45c	0.07663795
37	0xbdc71e0c	-0.09722528
38	0x3e4f841f	0.20265244
39	0x3de3b5d7	0.111186676
40	0xbe9bffc3	-0.30468568
41	0x3db335b3	0.08750477
42	0x3e007257	0.12543617
43	0xbe4e0ff4	-0.20123273
44	0xbe5c403b	-0.21508877
45	0x3b894022	0.0041885534
46	0xbd9b9fbd	-0.07598827
47	0xbdf6951f	-0.12040161
48	0x3e7fea7f	0.24991797
49	0x3e821005	0.25402847
50	0xbec8548b	-0.39127
51	0xbe0f1a63	-0.1397491
52	0x3d6c958a	0.0577598
53	0x3daff469	0.085915394
54	0x3dfa2090	0.12213242
55	0x3be6c0e2	0.0070420364
56	0x3e754a2d	0.23954077
57	0xbd6f42bc	-0.058413252
58	0xbd804bdb	-0.06264468
59	0x3e36980d	0.1783144
60	0xbd4ade80	-0.0495286
61	0xbe5e0e7b	-0.21685211
62	0xbe86720d	-0.2625889
63	0x3e054277	0.13013636
64	0xbc51cfb3	-0.012805867
65	0xbd6b56c0	-0.057455778
66	0x3e5ad757	0.21371208
67	0x3e484561	0.19557716
68	0x3eb27153	0.34852085
69	0xbc86169f	-0.016368208
70	0xbdb968d0	-0.090531945
71	0xbee748bc	-0.4517268
72	0x3db0d510	0.086343884
73	0x3cb4e38a	0.022081155
74	0xbdbcb9a7	-0.09215098
75	0xbea88b84	-0.32918942
76	0x3e2d6746	0.16933927
77	0x3ec848e6	0.39118117
78	0xbcf6cac3	-0.030125981
79	0x3e93ae52	0.28843933
80	0xbdff18a4	-0.12455872
81	0x3ea102f4	0.31447566
82	0xbd3a2b6d	-0.04545157
83	0x3db57ef6	0.088621065
84	0xbda1f27b	-0.079075776
85	0xbcb0f038	-0.02159892
86	0xbdd96fed	-0.10617051
87	0xbd53ee1c	-0.05174075
88	0xbe607c5d	-0.21922441
89	0x3e15c910	0.1462748
90	0xbebb5d64	-0.3659469
91	0x3e3af45c	0.18257278
92	0x3d8669e7	0.06563168
93	0xbba793f8	-0.005114075
94	0xbd16dbec	-0.036830828
95	0x3e5c3091	0.21502902
96	0x3e681b12	0.22666577
97	0xbe296fd5	-0.16546567
98	0x3dff11f6	0.12454598
99	0xbe100812	-0.14065579
100	0xbda51b33	-0.080618285
101	0xbe88b171	-0.26697877
102	0x3dc4d50c	0.09610948
103	0x3d97875c	0.073988646
104	0xbebc952c	-0.3683256
105	0x3ecb9069	0.39758614
106	0xbd84e266	-0.064884946
107	0xbdafb196	-0.08578794
108	0x3e03e655	0.12880833
109	0xbe5d81c1	-0.21631528
110	0xbb5e5f76	-0.003393141
111	0x3a9e8acb	0.0012095807
112	0xbe299b25	-0.16563089
113	0x3ded7cfb	0.11596104
114	0x3d140c6b	0.036144655
115	0xbd7ecfcd	-0.062209893
116	0x3e1e60da	0.15466633
117	0x3ecbad53	0.39780673
118	0x3e0e8837	0.1391915
119	0xbe405193	-0.18781118
120	0x3e89bc1f	0.26901338
121	0x3d98f645	0.07468847
122	0x3ec81573	0.39078864
123	0xbdf3186e	-0.11869894
124	0xbdc93f02	-0.09826471
125	0x3dd2ba51	0.10289443
126	0x3e575210	0.21027398
127	0xbe207cd2	-0.15672615
128	0xbc7a6509	-0.015282878
129	0xbc94ca96	-0.018163007
130	0x3d9a7391	0.07541574
131	0xbe714a38	-0.23563468
132	0x3e82c6d2	0.25542313
133	0x3e4542d8	0.1926378
134	0x3edb4dcf	0.428328
135	0xbe0b4bed	-0.13603182
136	0x3cf621ab	0.030045351
137	0xbe1cdd99	-0.15318908
138	0xbe937097	-0.28796837
139	0xbc2ca948	-0.010538407
140	0xbe265bc9	-0.16245951
141	0x3dcc3da9	0.09972698
142	0x3d3df99c	0.046380624
143	0x3e94a86c	0.29034746
144	0x3c306c81	0.010768057
145	0xbe5d2bb0	-0.21598697
146	0xbd2487a1	-0.04016841
147	0xbd97e1f3	-0.07416143
148	0x3eec7f12	0.46190697
149	0x3e8d2fb2	0.2757545
150	0x3c545647	0.012960023
151	0xbe9b7ed5	-0.30370203
152	0xbd2d5bcb	-0.04232387
153	0xbe56967f	-0.20955847
154	0xbe80a657	-0.25126907
155	0xbd78cdfd	-0.06074332
156	0x3e18cd3e	0.14922044
157	0x3d032ab2	0.03202314
158	0xbd409bd6	-0.047023617
159	0x3dc58b85	0.09645752
160	0x3d416de9	0.04722396
161	0xbd15369a	-0.036429025
162	0x3e847b2b	0.2587522
163	0x3d408bc7	0.047008302
164	0xbcc5fb5c	-0.024167709
165	0x3e885fc0	0.2663555
166	0x3c0b935b	0.008519019
167	0x3e98aa46	0.29817408
168	0x3dbe3c56	0.09288852
169	0xbe907aec	-0.28218782
170	0xbe01af5e	-0.12664554
171	0x3e9714e1	0.29508117
172	0xbccc5914	-0.02494482
173	0x3d0e04ec	0.034672663
174	0x3dfdb34c	0.12387714
175	0x3d7915f2	0.060811944
176	0xbb832df1	-0.0040032794
177	0xbe2eb5f2	-0.17061594
178	0x3e8c5458	0.274081
179	0xbdfeee65	-0.12447814
180	0x3e4ed454	0.20198184
181	0xbb2f57ad	-0.002675514
182	0xbdf99255	-0.12186114
183	0xbd12bd0d	-0.035824824
184	0xbe6788dc	-0.22610801
185	0x3de84f52	0.11343254
186	0xbcbb7c5e	-0.022886451
187	0x3ec68a2b	0.3877729
188	0xbce2bd72	-0.027678225
189	0x3e0c2470	0.13685775
190	0xbe2fa659	-0.171533
191	0xbd92ca39	-0.07167477
192	0xbe4a1410	-0.19734216
193	0x3e596676	0.21230492
194	0xbd8fe2b0	-0.07025659
195	0xbd55c313	-0.05218799
196	0xbdc006aa	-0.09376271
197	0x3e528151	0.20557143
198	0x3dbc995e	0.0920894
199	0x3dbf1a2a	0.09331162
200	0xbd66b8bc	-0.05632852
201	0x3e843aab	0.2582601
202	0xbdc2b077	-0.09506314
203	0x3e49953c	0.19685835
204	0x3d905ea2	0.070493
205	0xbd87b777	-0.0662679
206	0x3e26f178	0.1630305
207	0xbe2f12eb	-0.1709706
208	0xbcf7098c	-0.03015592
209	0x3eadcec0	0.339468
210	0x3c039952	0.00803216
211	0x3e16b456	0.1471723
212	0x3e1efeed	0.15526934
213	0xbda671f2	-0.08127202
214	0xbe745055	-0.23858769
215	0xbd065799	-0.032798383
216	0x3c69d285	0.014271383
217	0xbe56dfcb	-0.20983808
218	0xbe1db988	-0.15402806
219	0x3d5a68cc	0.0533226
220	0x3d8b92ea	0.06815131
221	0xbd260380	-0.04053068
222	0xbc28e791	-0.010309116
223	0xbda95059	-0.08267278
224	0xbd33b8b1	-0.043877307
225	0xbb781aaf	-0.0037857702
226	0x3e8bc4b0	0.27298498
227	0xbd3d54fa	-0.046223618
228	0xbe6ff19e	-0.23432013
229	0xbd8ed23b	-0.06973692
230	0xbcd661e1	-0.02616972
231	0x3da37eb7	0.07983153
232	0xbd12003b	-0.03564475
233	0xbe568463	-0.20948939
234	0x3d0158b2	0.031578727
235	0xbdcb24c9	-0.099191256
236	0xbe026e53	-0.12737398
237	0xbe77060d	-0.24123402
238	0x3ec5475a	0.38531
239	0xbc95def0	-0.018294781
240	0x3e6c916b	0.23102348
241	0xbd98b1f7	-0.07455819
242	0xbd6e37d6	-0.058158718
243	0xbd55a050	-0.05215484
244	0xbd91a426	-0.07111387
245	0xbe3a1d3f	-0.18175219
246	0x3e2b91fa	0.16754904
247	0x3dc2a492	0.095040455
248	0x3eac2242	0.33619887
249	0x3e41b92f	0.18918298
250	0xbd4b5260	-0.049639106
251	0xbcc667c3	-0.0242194
252	0x3e09834b	0.1342899
253	0x3e4c07a6	0.19924793
254	0x3e4fd152	0.20294693
255	0x3e26bb4b	0.16282384

conv1.bias f4 [64]
0	0xbe2006af	-0.1562755
1	0xbcbee733	-0.023303604
2	0xbda2f5c7	-0.079570346
3	0xbd081a44	-0.033228174
4	0x3d349e91	0.044096533
5	0x3e09471c	0.13406032
6	0x3e3fd1b1	0.18732335
7	0xbd9a0617	-0.07520693
8	0xbe06087a	-0.13089171
9	0x3e03153c	0.12801069
10	0x3e2dfe7b	0.16991608
11	0x3e3cc433	0.18434219
12	0x3d723c23	0.059139382
13	0x3e098a0e	0.1343157
14	0x3d648ccb	0.055798333
15	0xbe14858a	-0.14504066
16	0xbe1704c7	-0.14747916
17	0xbd656c3f	-0.056011435
18	0x3c760e08	0.015017994
19	0xbd47d4fc	-0.048787102
20	0x3d353f7c	0.044249997
21	0x3d8c0d99	0.06838531
22	0xbe0c3c86	-0.13694963
23	0x3c2f5cbd	0.010703263
24	0x3e429f20	0.19006014
25	0x3e08c8f8	0.13357913
26	0xba82348e	-0.0009933875
27	0xbd5288e0	-0.051400065
28	0xbcd6c3ea	-0.026216466
29	0x3d8d92c4	0.06912759
30	0xbd87e2be	-0.066350445
31	0x3e4954b6	0.19661221
32	0xbb80bad7	-0.003928523
33	0xbe08f11e	-0.13373229
34	0xbda29cb5	-0.07940046
35	0xbd6c7e8f	-0.057737883
36	0xbe1e04e7	-0.15431558
37	0xbd9a1055	-0.07522646
38	0xbe449d3a	-0.19200602
39	0x3d744ea1	0.0596453
40	0xbce65725	-0.028117726
41	0x3d26cdc8	0.040723592
42	0xbdd23242	-0.10263492
43	0xbdbfe7e1	-0.09370399
44	0xbdc9a186	-0.09845261
45	0x39da9442	0.0004169066
46	0xbe1b290b	-0.15152375
47	0xbe2a862e	-0.16652748
48	0x3d0d244a	0.034458436
49	0xbe2fe39c	-0.1717667
50	0x3e1fb5b8	0.15596664
51	0x3e11596d	0.1419427
52	0x3dcc172e	0.09965359
53	0x3e044e62	0.12920526
54	0xbd946bf5	-0.07247154
55	0x3d79b56b	0.06096403
56	0x3d1e4439	0.03863928
57	0x3e370bf0	0.17875648
58	0xbe38c117	-0.18042408
59	0xbd05f3db	-0.03270326
60	0x3dd06e36	0.10177271
61	0x3dd95b2c	0.10613093
62	0xbe26c9d9	-0.16287936
63	0x3e3ae2c0	0.18250561

conv2.weight f4 [64, 64, 3, 3]
0	0x3d8949ec	0.067035526
1	0xbcccb0fa	-0.024986733
2	0x3c86a4b1	0.016435953
3	0xbcbb9d7b	-0.022902241
4	0xbcbef1a4	-0.023308583
5	0x3d891091	0.06692613
6	0x3df7b73d	0.12095497
7	0xbcadf19e	-0.021233376
8	0x3cf4a751	0.029864939
9	0xbd19e382	-0.037570484
10	0x3d4a745c	0.049427375
11	0x3c56665a	0.013085926
12	0xbc2484d2	-0.010041432
13	0xbc661d13	-0.014045018
14	0xbdca58b5	-0.09880201
15	0x3c065ed2	0.008201318
16	0x3c7a8193	0.015289682
17	0xbd1cd3ad	-0.038287807
18	0xba906806	-0.001101733
19	0xbdb9b018	-0.0906679
20	0x3d8dab9a	0.06917496
21	0xbd8fd6d7	-0.07023399
22	0x398f511b	0.00027335514
23	0xbbc64909	-0.006051187
24	0x3d28ca84	0.04120876
25	0xbd25d730	-0.040488422
26	0xbe26c274	-0.16285115
27	0x3be7431b	0.00705756
28	0xbc975917	-0.018475099
29	0x3cb7106c	0.022346698
30	0x3e259f32	0.1617401
31	0x3c94f60a	0.018183727
32	0xbcfea55f	-0.031084714
33	0x3d04af4e	0.032393746
34	0xbdaf8fe0	-0.08572364
35	0x3d5305c0	0.051519156
36	0xbd2a1aa8	-0.041529328
37	0x3c371f07	0.011176831
38	0x3d601fbe	0.05471777
39	0xbb81e5b3	-0.00396415
40	0x3d0c1e39	0.03420851
41	0xbd7e415a	-0.062074043
42	0x3d2e3330	0.042529285
43	0xba447b6a	-0.0007495197
44	0x3d00601b	0.031341653
45	0x3cd12c77	0.025533898
46	0xbd3984e9	-0.04529277
47	0x3ccaf69f	0.024775801
48	0xb9feb834	-0.00048583897
49	0xbc9eeba3	-0.01939947
50	0xbcc3c3ce	-0.023897078
51	0xbd45a643	-0.048254263
52	0x3d04f70b	0.03246216
53	0x3ca593f1	0.020212146
54	0xbd2251ce	-0.039628796
55	0x3d239195	0.03993376
56	0xbd534732	-0.05158157
57	0x3d30ed28	0.04319492
58	0xbc473b8e	-0.012160195
59	0x3d695836	0.05696889
60	0xba9fbabb	-0.0012186387
61	0x3d204f19	0.039137933
62	0xba0033b6	-0.0004890518
63	0xbd88cb99	-0.06679458
64	0xbd1c9e59	-0.03823695
65	0xbc2b0e3e	-0.010440407
66	0xbe270c3b	-0.1631326
67	0x3ca2dd3c	0.019880883
68	0xbb9067e7	-0.0044069174
69	0x3d57c7eb	0.05268089
70	0xbd53390a	-0.05156807
71	0xbd55be1a	-0.052183248
72	0xbdd1bf50	-0.10241568
73	0xbdf6db72	-0.120535746
74	0xbd92c3b0	-0.07166231
75	0xbcec3803	-0.028835302
76	0x3de22a60	0.11043239
77	0x3cceb0dd	0.02523082
78	0x3d1d5b4b	0.038417142
79	0xbe259f0c	-0.16173953
80	0x3d81aa5b	0.06331321
81	0xbc4ff744	-0.01269323
82	0x3df06d79	0.1173963
83	0xbcbcacba	-0.023031581
84	0x3d12a860	0.035805106
85	0x3c431187	0.011906034
86	0xbd3ec0b8	-0.04657051
87	0x3ccfe834	0.025379278
88	0x3cd04ffa	0.02542876
89	0x3d425c7f	0.047451492
90	0x3b937852	0.0045004273
91	0x3c0e771f	0.008695393
92	0x3d219a76	0.039453946
93	0x3db1c869	0.08680803
94	0x3d6434d5	0.055714447
95	0x3d82b734	0.063825995
96	0x3ddab486	0.10678963
97	0x3d10d999	0.035363767
98	0x3da3336d	0.07968793
99	0xbd11e32a	-0.03561703
100	0x3dd1ab29	0.10237724
101	0xbd90cba1	-0.07070089
102	0x3cf0d322	0.029397551
103	0xbc5d6633	-0.013513136
104	0x3d98bd2e	0.07457958
105	0xbbc6a092	-0.006061622
106	0xbd3f85ee	-0.046758585
107	0x3d6a660c	0.057226226
108	0xbc3bd607	-0.011464602
109	0xbc5ae5d6	-0.013360461
110	0xbe1d16e9	-0.15340771
111	0xbd905d19	-0.07049007
112	0x3d48c146	0.049012445
113	0x3d80359d	0.06260226
114	0xbc9d47a5	-0.019199202
115	0xbd03a640	-0.03214097
116	0x3b935daf	0.004497252
117	0x3cd712a0	0.026253998
118	0xbcdb6ce2	-0.026785318
119	0x3d1631d0	0.0366686
120	0xbc781121	-0.015140803
121	0xbd8f74b6	-0.07004683
122	0xbdbf60ba	-0.09344621
123	0x3dace5d9	0.084422775
124	0xbd9519c2	-0.072803035
125	0xbd8e2013	-0.069397114
126	0x3c4c1160	0.012455314
127	0x3d38032b	0.044924896
128	0x3e061cbd	0.130969
129	0xbaa3d751	-0.0012500082
130	0x3d85f1c2	0.06540252
131	0x38c5cd90	9.431981e-05
132	0xbde0e87e	-0.10981844
133	0x3dafa52f	0.08576428
134	0xbce1f24c	-0.027581356
135	0x3d2e5536	0.042561732
136	0xbccc4d0e	-0.024939086
137	0x3cadd16c	0.021218024
138	0xbda8309a	-0.08212395
139	0xbc1d7601	-0.009610654
140	0x3cac2619	0.02101426
141	0x3d6824f0	0.05667585
142	0x3d8db4a8	0.06919223
143	0xbc894033	-0.016754245
144	0x3ce30dfb	0.027716627
145	0x3d56411a	0.05230818
146	0xbd9621cc	-0.07330665
147	0x3daca53f	0.08429956
148	0x3e0ec2c0	0.13941479
149	0x3db76714	0.089552075
150	0xbd771443	-0.060322057
151	0x3d69d72c	0.05708997
152	0xbc54fa6a	-0.0129991565
153	0x3bc8f7aa	0.0061330395
154	0x3e08b612	0.13350704
155	0x3d930c52	0.07180084
156	0xbd6936fc	-0.056937203
157	0x3d81121b	0.063022815
158	0xbd015d16	-0.031582914
159	0xbd8ae7a2	-0.06782462
160	0xbda14f21	-0.07876421
161	0x3dc8749c	0.097878665
162	0x3c8852cc	0.016641043
163	0x3d33e33d	0.043917883
164	0x3d2f2859	0.042763088
165	0x3e187800	0.14889526
166	0x3d32312e	0.043503933
167	0x3d04e3b0	0.032443702
168	0x3bd139ef	0.00638508
169	0xbd8a12a2	-0.06741835
170	0xbb77dd99	-0.0037821291
171	0x3d9c097e	0.07618998
172	0x3dbcc219	0.09216709
173	0xbc637022	-0.013881715
174	0x3d6a5de3	0.057218444
175	0xbdc850ac	-0.09781012
176	0x3d0f6326	0.035006665
177	0xbd9edba8	-0.0775674
178	0xbd63a2a9	-0.055575047
179	0xbd3c1d70	-0.04592651
180	0x3da13b80	0.07872677
181	0xbda377bb	-0.07981821
182	0x3d144e15	0.036207277
183	0xbbad8430	-0.005295299
184	0xbd1e709b	-0.038681608
185	0xbd4d0931	-0.050057594
186	0x3c16e75e	0.009210436
187	0xbc57417e	-0.013138173
188	0xbdb4c0ba	-0.08825822
189	0xbd8b7865	-0.06810073
190	0xbca2e88f	-0.019886283
191	0xbb55ce17	-0.003262406
192	0x3b8d8b58	0.0043195896
193	0x3d334cdf	0.043774482
194	0x3d9109e8	0.070819676
195	0x3d416758	0.047217697
196	0x3d8da9a9	0.06917126
197	0x3e1ff338	0.15620124
198	0x3c21a9dc	0.009867158
199	0x3d118af8	0.03553292
200	0x3ca55034	0.020179845
201	0xbc6e7ba5	-0.014555846
202	0x3c301724	0.010747705
203	0xbcb972d3	-0.02263776
204	0x3b380e2b	0.0028084617
205	0x3d76a4d3	0.060215782
206	0xbdff76bc	-0.12473819
207	0x3c1642fb	0.009171243
208	0x3da34183	0.0797148
209	0xbd7b37c3	-0.061332475
210	0xbd952783	-0.07282927
211	0x3dbfb048	0.09359795
212	0xb9b3a2cc	-0.00034262834
213	0xbd03ec42	-0.032207735
214	0xbdbacd75	-0.09121219
215	0xbd4568b2	-0.04819555
216	0x3d401845	0.046898145
217	0x3bd503b6	0.0065006865
218	0x3e014111	0.12622477
219	0xbd918c2d	-0.071068145
220	0x3cfe3eef	0.031035868
221	0x3e2b1ef0	0.1671102
222	0xbc796f4b	-0.015224288
223	0xbdbca2c4	-0.092107326
224	0x3d34f7ce	0.044181637
225	0xbcd0e36d	-0.02549907
226	0x3dcb3184	0.09921554
227	0x3a86085c	0.001022588
228	0xbb7891f0	-0.0037928782
229	0xbd5e398a	-0.054254092
230	0xbdd35ed1	-0.10320819
231	0xbda017aa	-0.078170136
232	0xbd9dda70	-0.07707679
233	0xbd81ce16	-0.06338136
234	0x3d53fce8	0.051754862
235	0x3c8030c6	0.015648257
236	0xbca1dfe8	-0.019760087
237	0x3e132f06	0.14373407
238	0x3dbba8ed	0.091630794
239	0xbd3412ed	-0.04396336
240	0xbd6270f5	-0.055283505
241	0xbc733ffd	-0.014846799
242	0xbd699936	-0.05703088
243	0x3d360ba8	0.04444471
244	0x3d675ce0	0.056485057
245	0xbdcdb60b	-0.100444876
246	0xbda21012	-0.079132214
247	0xbb550388	-0.0032503325
248	0x3ca0967f	0.019603012
249	0xbda91455	-0.08255831
250	0xbd8e906b	-0.06961139
251	0x3d155901	0.036461834
252	0xbd7fecd5	-0.06248172
253	0xbba7b132	-0.005117559
254	0xbd305b9f	-0.043056127
255	0x3dc785e2	0.09742333

conv2.bias f4 [64]
0	0xbc8a7550	-0.016901642
1	0xbcf5fd84	-0.030028112
2	0x3ce70f8d	0.028205657
3	0xbc1ae39c	-0.00945368
4	0x3ce7cfd6	0.028297346
5	0x3bf7d97c	0.007563768
6	0x3c819208	0.015816703
7	0xbcb8612e	-0.022507276
8	0x3cfeedda	0.031119276
9	0x3c9b930b	0.018991014
10	0xbbdc1ee3	-0.006717549
11	0xbd214614	-0.039373472
12	0xbc5dedf1	-0.013545499
13	0x3c790e04	0.0152010955
14	0x3c25f320	0.010128766
15	0x3d0b9245	0.03407504
16	0x3c8ab391	0.016931327
17	0x3ccb9e45	0.024855742
18	0xbbd813c8	-0.006594155
19	0xbcb7010c	-0.022339366
20	0x3cb0edff	0.02159786
21	0xbc8d9df5	-0.017287234
22	0x3d41d3dc	0.047321185
23	0xbcfffecd	-0.031249428
24	0x3d1a64a2	0.037693627
25	0xbce6ad72	-0.028158877
26	0xbc3bc9f2	-0.011461722
27	0x3d28c89e	0.04120695
28	0xbca12799	-0.019672202
29	0x3d0f9029	0.03504959
30	0xbb76c399	-0.0037653206
31	0x3ccede07	0.025252355
32	0xbd1effdb	-0.03881822
33	0xbd2bd731	-0.04195327
34	0xbc9bf5f1	-0.019038172
35	0x3b841c31	0.004031681
36	0xbd1f05c9	-0.038823877
37	0x3d04338d	0.032275725
38	0xbcb944e6	-0.022615861
39	0xbc547b10	-0.0129687935
40	0x3d0aa351	0.033847157
41	0x3c87d22f	0.016579716
42	0xbc9d28cb	-0.01918449
43	0xbd041c96	-0.032253824
44	0xbd20a668	-0.039221197
45	0x3ce8af92	0.028404031
46	0x3cce57e0	0.025188386
47	0xbce31c10	-0.027723342
48	0xbbfcc4d2	-0.0077138925
49	0xbbf2cb26	-0.007409471
50	0x3cc07ccc	0.023497008
51	0xbc334191	-0.010940925
52	0x3a9883f7	0.0011636008
53	0xbd187a67	-0.037226107
54	0xbcd8fb9f	-0.02648717
55	0x3ca4d12e	0.020119276
56	0xbd0a4ea2	-0.033766396
57	0x3c5eada0	0.0135912
58	0x3c701b26	0.01465491
59	0x3ce2c583	0.027682072
60	0xbc2b8d4b	-0.010470699
61	0xbc882a64	-0.016621776
62	0x3c8ffda3	0.017576998
63	0xba9ff798	-0.0012204526

conv3.weight f4 [32, 64, 3, 3]
0	0x3e0ce807	0.13760386
1	0x3cf9b2bb	0.030480733
2	0x3d512015	0.051055986
3	0xbd50336c	-0.05083029
4	0x3cb567a3	0.022144144
5	0xbd25ff6d	-0.040526796
6	0x3e55f90a	0.20895782
7	0xbb995bfa	-0.004680154
8	0x3ccb83ec	0.024843179
9	0x3bb609eb	0.0055553815
10	0xbdcb5c16	-0.099296734
11	0x3d0c0a34	0.034189418
12	0xbd97821a	-0.07397862
13	0xbc955d2d	-0.018232906
14	0xbcebea36	-0.028798204
15	0xbca9cc93	-0.020727431
16	0x3e0d5452	0.13801697
17	0xbd1f66dd	-0.038916457
18	0x3d9fd9ed	0.07805238
19	0x3cb99c9a	0.022657681
20	0x3d754d29	0.05988804
21	0xbcb57705	-0.02215148
22	0x3d04b3c1	0.03239799
23	0x3d33b099	0.04386959
24	0x3df97113	0.1217977
25	0xbd6e473f	-0.058173414
26	0xbe0c36a8	-0.13692725
27	0xbd6c95e9	-0.057760153
28	0x3d152126	0.036408566
29	0xbd47312b	-0.048630875
30	0x3d8c6c6f	0.068566196
31	0xba85333e	-0.0010162366
32	0xbd374d31	-0.04475135
33	0xbd68a1a3	-0.056794774
34	0x3c4829a7	0.012216962
35	0x3e132935	0.14371188
36	0xbd4f0104	-0.050538078
37	0x3c435e0c	0.011924278
38	0xbd803a55	-0.06261126
39	0xbd73c709	-0.059515987
40	0x3cd491ad	0.02594837
41	0x3c6135b6	0.013745716
42	0xbd30d857	-0.043175068
43	0xbd37f25b	-0.044908863
44	0x3be7b1bd	0.0070707486
45	0x3ad1203f	0.0015955045
46	0xbe10b3c4	-0.14131075
47	0x3d23bc19	0.039974306
48	0xbd1a8148	-0.03772095
49	0x3db90cd4	0.0903565
50	0x39eaf65f	0.0004481552
51	0x3c692e1a	0.014232183
52	0x3c67e88b	0.014154564
53	0x3c8a7d26	0.016905379
54	0x3d1678a5	0.03673615
55	0x3d1bcc58	0.038036674
56	0xbac6b76c	-0.0015160865
57	0xbcefb547	-0.029261244
58	0x3d2fd069	0.042923365
59	0xbda3e2cd	-0.08002243
60	0x3d9597d0	0.073043466
61	0xbc713a2a	-0.01472334
62	0xbc3c0752	-0.011476355
63	0xb99722a8	-0.00028826785
64	0x3d8a8cf3	0.06765165
65	0x3dd9dd6e	0.106379375
66	0x3d6bc4d0	0.057560742
67	0x3a595407	0.0008290414
68	0x3cd03834	0.025417425
69	0xbc8fc23e	-0.017548677
70	0xbd462161	-0.048371676
71	0xbc53b352	-0.012921171
72	0x3dc01d86	0.09380631
73	0xbd620cb5	-0.0551879
74	0xbda3d56c	-0.07999691
75	0x3db87b1f	0.090078585
76	0xbd4771c6	-0.048692487
77	0x3dfd06e8	0.12354833
78	0x3d425ee2	0.04745377
79	0xbdb1eecd	-0.08688126
80	0x3c65c311	0.014023558
81	0x3d590f50	0.05299312
82	0x3cad79ab	0.02117618
83	0xbdcf3edd	-0.10119412
84	0xbcdde475	-0.027086476
85	0xbb6a67b0	-0.003576737
86	0xbd69c09a	-0.057068445
87	0xbd1bcf9c	-0.03803979
88	0xbd7dd31c	-0.061968908
89	0x3ce788bf	0.028263448
90	0x3d20ad90	0.039228022
91	0xbdc73ade	-0.09728025
92	0x3c5542bd	0.0130164
93	0x3cbee111	0.02330068
94	0x3c13e2fa	0.009026283
95	0x3cfa2a42	0.030537728
96	0xbe13e7f6	-0.14443955
97	0xbd7a364c	-0.061086938
98	0x3d86ef83	0.06588652
99	0xbdbabfd3	-0.09118619
100	0xbd769890	-0.06020409
101	0xbdbca101	-0.092103966
102	0xbd10e9cb	-0.035379212
103	0x3d1bd26d	0.038042475
104	0xbce215c5	-0.027598271
105	0xbd904b16	-0.070455715
106	0xbda65bc3	-0.08122971
107	0x3df30e2f	0.1186794
108	0x3d3358fc	0.043786034
109	0xbd164ac4	-0.036692396
110	0xbcf4b619	-0.029871987
111	0x3c90c938	0.017674074
112	0x3c90022b	0.017579159
113	0x3e05a653	0.13051729
114	0xbc1c1e9c	-0.009528782
115	0x3dd438e0	0.103624105
116	0xbc7a2a98	-0.015268944
117	0xbd1b0bc9	-0.037853036
118	0x3d11b065	0.035568614
119	0xbd1f0df1	-0.038831655
120	0x3d3d7171	0.046250764
121	0x3ce3a8bb	0.027790418
122	0xbcf7b11a	-0.030235816
123	0xbdad9bb5	-0.084769644
124	0xbdd733ee	-0.10507952
125	0xbc2930a2	-0.010326536
126	0xbd2e9aef	-0.042628225
127	0x3d95042e	0.07276188
128	0xbd3268ef	-0.043557104
129	0xbd91663d	-0.070995785
130	0xbda465cd	-0.080272295
131	0x3d9c3d54	0.07628885
132	0x3caa69f5	0.020802477
133	0xbdbcb094	-0.09213367
134	0xbba29812	-0.004961976
135	0xbdb9640c	-0.090522856
136	0x3d4e3fc3	0.050353777
137	0xba7fd496	-0.0009759156
138	0xbd3a1ce6	-0.045437716
139	0xbdef7bfa	-0.116935685
140	0x3cea9d3c	0.028639428
141	0xbca49364	-0.020089813
142	0x3d628882	0.055305965
143	0xbda3fb8f	-0.08006965
144	0xbc249564	-0.010045383
145	0x3dcdce41	0.100491054
146	0xbd9285f8	-0.07154459
147	0x3d8ceda7	0.06881266
148	0x3de5c72a	0.11219628
149	0xbdb72751	-0.08943046
150	0xbcf0a191	-0.029373916
151	0x3da343cc	0.079719156
152	0xbccb3a75	-0.024808148
153	0xbc4b9e0e	-0.01242782
154	0xbcd56e49	-0.026053565
155	0xbc116ca5	-0.0088760005
156	0xbd54931a	-0.0518981
157	0xbdb9d7c5	-0.09074358
158	0xbda7090e	-0.08156024
159	0x3c6dec77	0.01452171
160	0xbdcd9a8e	-0.100392446
161	0xbcc3adb3	-0.023886537
162	0x3d58c6b6	0.05292388
163	0xbb915e5c	-0.0044362973
164	0x3c8de5bf	0.017321466
165	0xbd64be69	-0.05584565
166	0xbd6abc34	-0.05730839
167	0xbca44033	-0.020050144
168	0x3c5c40e9	0.01344321
169	0xbdc22978	-0.09480566
170	0x3c63aab8	0.013895683
171	0x3b1390b1	0.0022516663
172	0xbda65e61	-0.0812347
173	0xbd8f57f3	-0.06999197
174	0xbcfac3d7	-0.030610962
175	0xbc99d7d3	-0.01877967
176	0xbb6bd0bb	-0.0035982567
177	0xbc982c71	-0.018575879
178	0x3cec5e5f	0.028853593
179	0x3c97ff89	0.018554466
180	0x3b65528c	0.0034991829
181	0x3cd14ff3	0.025550818
182	0xbb0693fa	-0.0020534978
183	0xbc03eab9	-0.008051568
184	0xbd0b9fab	-0.034087818
185	0xbd7361c1	-0.059419397
186	0x3cad6e13	0.021170652
187	0xbd753c32	-0.05987186
188	0xbd4e3eb9	-0.050352786
189	0xbd12f928	-0.035882145
190	0x3da78fb5	0.08181707
191	0x3d908196	0.070559666
192	0xbc8563bd	-0.01628291
193	0xbd8e8bd9	-0.069602676
194	0x3d30e90a	0.043190993
195	0xbdb50695	-0.08839146
196	0x3cd06a3b	0.02544128
197	0xbdf40cef	-0.119165294
198	0x3cc9dd36	0.024641614
199	0xbd961848	-0.0732885
200	0x3d633ce5	0.055477995
201	0xbb663d30	-0.0035131685
202	0xbd1a4a3b	-0.037668448
203	0x3dc79aa6	0.09746294
204	0xbb315797	-0.0027060264
205	0xbd618b91	-0.05506474
206	0x3cf6c432	0.03012285
207	0xbd04f993	-0.032464575
208	0x3cfc204e	0.030777123
209	0xbcb9db68	-0.022687629
210	0xbdc94b10	-0.0982877
211	0x3d37910a	0.044816054
212	0xbe012892	-0.12613133
213	0xbcefe477	-0.029283745
214	0x3d0ca6b0	0.034338653
215	0xbc8762a9	-0.016526537
216	0xbbbc60ee	-0.0057488596
217	0x3d5d166c	0.05397646
218	0x3c790d20	0.015200883
219	0x3d0ce9fc	0.034402832
220	0xbc8ed7a9	-0.01743682
221	0x3c307451	0.0107699195
222	0x3df38add	0.118917204
223	0xbd190f61	-0.037368182
224	0x3c73e87e	0.014886973
225	0x3d109ffa	0.035308816
226	0xbc6e1320	-0.014530927
227	0x3d2f0763	0.042731654
228	0x3bdcdf81	0.006740511
229	0xbcffb97d	-0.031216377
230	0x3d95ce08	0.07314688
231	0xbd951130	-0.07278669
232	0xbc1b173f	-0.0094659915
233	0xbc4de15a	-0.012565935
234	0xbc6cf72c	-0.014463227
235	0x3d8dca44	0.06923345
236	0xbcb429b9	-0.021992551
237	0xbdcf976d	-0.10136304
238	0xbd23aaea	-0.03995792
239	0xbd058886	-0.032600902
240	0xbc1fe9cc	-0.009760331
241	0xbd4e7872	-0.050407834
242	0x3d110087	0.035400894
243	0x3d3fb9bc	0.04680799
244	0x3c5ecf82	0.013599278
245	0xbb7ea149	-0.0038853458
246	0x3da033fb	0.078224145
247	0x3ca94dab	0.020666918
248	0x3d244ee2	0.04011429
249	0x3d77772b	0.06041638
250	0x3cec81de	0.02887052
251	0x3d183de9	0.037168417
252	0x3dd9b4b1	0.10630167
253	0xbde86ed5	-0.113492645
254	0x3da248ce	0.07924043
255	0xbb53d099	-0.0032320379

conv3.bias f4 [32]
0	0xbc010a1a	-0.007875944
1	0xbce2e03a	-0.02769481
2	0x3b13fd84	0.0022581527
3	0xbd19149a	-0.037373163
4	0xbc6413ca	-0.013920734
5	0x3d1e7241	0.03868318
6	0x3b455c2d	0.0030114756
7	0xbd01c228	-0.031679302
8	0xbc5195e2	-0.0127920825
9	0xbcda87fe	-0.026676174
10	0xbc12e285	-0.008965139
11	0x3ca5f1ca	0.020256896
12	0x3cec5a59	0.028851675
13	0x3c097790	0.008390322
14	0xbc5586a4	-0.013032589
15	0xbb5075ce	-0.0031808498
16	0xbaf64ead	-0.0018791758
17	0xbba39f38	-0.0049933456
18	0xbd251a1f	-0.040308114
19	0x3d02af7e	0.031905644
20	0x3d2b9672	0.041891523
21	0xbab41f12	-0.001374217
22	0xbd148d51	-0.036267582
23	0xbcd71747	-0.026256217
24	0x3c3bb00e	0.011455549
25	0x3c9881ef	0.018616645
26	0x3b981005	0.0046405816
27	0xbc47387e	-0.012159465
28	0xbb88c8f0	-0.0041743442
29	0x3c3b0e2f	0.011416956
30	0x3d16411b	0.036683183
31	0x3c36e92b	0.01116399

conv4.weight f4 [4, 32, 3, 3]
0	0xbb58ff19	-0.0033111034
1	0x3d8c0d4e	0.06838475
2	0xbd42d2b8	-0.04756424
3	0xbd8cebda	-0.068809226
4	0xbb712c9c	-0.003680027
5	0xbd8730aa	-0.06601079
6	0x3be5afab	0.0070094666
7	0x3c9470dc	0.018120222
8	0xbcbebb82	-0.02328277
9	0xbd9f2614	-0.07770935
10	0x3d6abf30	0.057311237
11	0xbd7d90fa	-0.06190584
12	0x3cb38f93	0.021919047
13	0x3d7bef95	0.06150778
14	0x3d0a5461	0.033771876
15	0x3c925415	0.017862359
16	0x3da997db	0.08280917
17	0x3c893026	0.016746592
18	0x3c8daca3	0.017294234
19	0x3c071108	0.008243807
20	0x3e043552	0.12910965
21	0x3c25ecfd	0.010127303
22	0x3cec621a	0.028855372
23	0xbd97b890	-0.074082494
24	0x3d166c67	0.036724474
25	0x3dd987de	0.10621618
26	0xbdb89291	-0.0901233
27	0xbd61e703	-0.05515195
28	0x3cf6b409	0.030115144
29	0xbab9c7f2	-0.0014173968
30	0xbc4517e2	-0.01202962
31	0x3db2e7c3	0.08735611
32	0x3d9dd3c2	0.07706405
33	0xbdab31f7	-0.083591394
34	0xbd917664	-0.07102659
35	0x3d46f034	0.04856892
36	0xbd30e0f4	-0.043183282
37	0x3db85924	0.09001377
38	0x3c049bab	0.008093755
39	0xbdcaec26	-0.09908323
40	0x3e204d64	0.15654522
41	0xbb97b2fb	-0.0046294904
42	0xbdc56ad8	-0.096395195
43	0x3da04025	0.078247346
44	0x3d05b99b	0.03264771
45	0x3db7ec1f	0.089805834
46	0xbc958dd3	-0.018256104
47	0x3d22534a	0.039630212
48	0xbd6bbb88	-0.05755189
49	0xbcb211a0	-0.02173692
50	0xbbaf4559	-0.005348843
51	0xbdbc27d8	-0.09187287
52	0xbcb42595	-0.021990577
53	0xbb113335	-0.0022155766
54	0xbd3fe528	-0.0468494
55	0xbb547f2a	-0.0032424429
56	0xbdebf3ac	-0.11521086
57	0x3c7324d7	0.014840326
58	0x3c09ec09	0.008418092
59	0xbd779e74	-0.060453847
60	0x3dcbba6a	0.09947665
61	0x3d1bc832	0.038032718
62	0x3b456088	0.0030117352
63	0xbd4e039f	-0.050296422
64	0xbd04e1d1	-0.032441918
65	0x3cd0ccc9	0.025488274
66	0x3c9b5ef2	0.018966172
67	0x3d96b0ee	0.073579654
68	0x3b3a20d9	0.0028400926
69	0x3cb7ce72	0.022437308
70	0x3d12dd2f	0.03585547
71	0x3d85391e	0.06505035
72	0x3c838a7a	0.016057242
73	0xbb33f78c	-0.0027460782
74	0xbcfbfcc6	-0.03076018
75	0x3df550cb	0.11978301
76	0x3cbf4103	0.02334643
77	0x3bb8ee93	0.0056436746
78	0xbbb82763	-0.0056199296
79	0x3cccdf7a	0.025008906
80	0xbbc7b498	-0.0060945265
81	0xbd74d6f0	-0.059775293
82	0x3c10e2b3	0.008843112
83	0xbcf10385	-0.029420624
84	0xbc9d7141	-0.019219043
85	0x3dbe264f	0.092846505
86	0xbd555c54	-0.052090004
87	0x3cfd02ae	0.030885067
88	0xbc05d96b	-0.008169512
89	0xbd82c045	-0.06384329
90	0xbd8b5087	-0.06802469
91	0x3db2e634	0.08735314
92	0x3d9cd72c	0.07658228
93	0x3cc8e721	0.024524273
94	0x3db71907	0.089403205
95	0x3cb27259	0.02178304
96	0xbd88a4f7	-0.066720895
97	0xbdb03f2a	-0.086057976
98	0xbd9d8012	-0.07690443
99	0xbd88594e	-0.066576585
100	0xbcd7f15c	-0.026360206
101	0x3d7541d4	0.05987723
102	0x3cf754d3	0.030191815
103	0x3b7f93fe	0.0038998122
104	0x3d92056f	0.071299426
105	0x3d2dcf9c	0.04243432
106	0xbc4b61cd	-0.012413454
107	0xbd0daa12	-0.03458602
108	0x3cc8ad23	0.02449662
109	0x3b6f2658	0.003649136
110	0xbd6b32f2	-0.057421632
111	0xbcd6a738	-0.026202783
112	0x3b965899	0.0045881984
113	0x3c5ce288	0.013481744
114	0x3d99cb56	0.075094864
115	0x3cb78e7f	0.022406815
116	0xbcf55f26	-0.029952597
117	0x3cefd6cc	0.029277228
118	0xbca38e83	-0.019965416
119	0x3d3165c4	0.043309942
120	0xbc4d4488	-0.012528546
121	0xbd8de249	-0.06927926
122	0xbdd7634a	-0.10516985
123	0xbd195f57	-0.03744444
124	0xbc11a7d1	-0.008890108
125	0x3d5b6a80	0.053568363
126	0xbd582954	-0.05277379
127	0xbd7f7335	-0.06236573
128	0x3d8bf166	0.068331525
129	0x3d60e160	0.054902434
130	0xbd846376	-0.06464283
131	0x3d7fd5ec	0.06245987
132	0x3dda0417	0.10645311
133	0xbc9d50ad	-0.019203508
134	0xbd6109d7	-0.054941025
135	0xbd1fbcf2	-0.03899855
136	0xbd24dd3a	-0.04025004
137	0x3d0284c0	0.03186488
138	0xbd785d63	-0.060635936
139	0xbce56ce4	-0.028006025
140	0x3ba4808b	0.0050202063
141	0x3e0463b8	0.12928665
142	0xbd266cbd	-0.040631045
143	0x3c4ae4fa	0.012383694
144	0xbd06b4d7	-0.032887306
145	0xbbf18a4d	-0.007371223
146	0xbd2c0a8e	-0.042002253
147	0x3e1bb3c0	0.15205288
148	0x3c604c78	0.013690107
149	0x3cb4f107	0.022087587
150	0xbe1ebca4	-0.15501648
151	0xbcdba67c	-0.026812784
152	0x3d49bf9c	0.049255
153	0xbd4f60fd	-0.050629605
154	0x3d3f677e	0.046729557
155	0xbafb3df3	-0.0019168243
156	0xbce32c1a	-0.02773099
157	0x3c671ceb	0.014106016
158	0xbc6c01dc	-0.01440474
159	0xbd844c38	-0.0645985
160	0xbd9df53f	-0.077127926
161	0x3d779864	0.060448065
162	0xbc34f56a	-0.011044839
163	0xbbbaa3b9	-0.005695787
164	0x3d9e8bbe	0.077414975
165	0xbd347532	-0.04405708
166	0x3dc2262d	0.09479938
167	0xbd3fc5ef	-0.046819624
168	0x3e16f846	0.14743146
169	0x3d441c26	0.047878407
170	0xbd46236a	-0.048373617
171	0x3dbab3d6	0.09116332
172	0x3d83e587	0.06440263
173	0x3c9a7cdb	0.018858364
174	0xbced047f	-0.028932808
175	0xbce5bf37	-0.02804528
176	0xbc08cff1	-0.008350358
177	0xbd95db6c	-0.07317242
178	0xbd0e0f4e	-0.034682564
179	0x3c2f87cf	0.010713532
180	0x3d504605	0.050848026
181	0x3ceded85	0.029043922
182	0xbd12a335	-0.035800178
183	0x3da41e54	0.08013597
184	0x3d6f7471	0.058460657
185	0xbd2a2444	-0.04153849
186	0xbd622172	-0.055207677
187	0xbdb1d9fd	-0.08684156
188	0xbb0e0846	-0.0021672412
189	0x3d8efea5	0.06982163
190	0x3d3ee420	0.046604276
191	0x3c05c146	0.008163756
192	0x3e257ff1	0.16162087
193	0x3e066521	0.13124515
194	0x3db4cae9	0.088277645
195	0xbbea32f1	-0.007147186
196	0xbd48eb77	-0.04905268
197	0xbce62ae8	-0.028096631
198	0x3daa5783	0.08317473
199	0x3d80a285	0.06280998
200	0x3bd613a5	0.0065331035
201	0x3c3113a8	0.010807909
202	0x3d22ede0	0.039777637
203	0x3dc3bf2b	0.09557947
204	0xbd66c7b6	-0.056342803
205	0xbd7fc7a5	-0.062446255
206	0xbb53cb40	-0.0032317191
207	0x3dfcacef	0.12337672
208	0x3daf7bff	0.08568572
209	0xbd13713b	-0.035996657
210	0x3cdb7031	0.026786895
211	0x3d253901	0.040337566
212	0xbd78f1d0	-0.060777485
213	0x3ace8b0b	0.0015757991
214	0x3cabdd1c	0.020979457
215	0xbdd1839b	-0.1023018
216	0x3be6a563	0.0070387586
217	0xbcaf8d60	-0.021429718
218	0xbd77553f	-0.06038403
219	0xbce32427	-0.0277272
220	0xbcbb3f09	-0.022857206
221	0x3d4c37cb	0.049857896
222	0xbd6198be	-0.055077307
223	0x3b57fdc9	0.0032957664
224	0xbd050589	-0.03247598
225	0x3d3f04ab	0.04663531
226	0x3db956fc	0.09049794
227	0xbb9c0502	-0.004761339
228	0xbd10c166	-0.03534069
229	0x3d983e11	0.07433713
230	0x3cccf197	0.025017543
231	0xbcbd26f8	-0.02308987
232	0x3d09dc80	0.03365755
233	0x3cc11962	0.023571674
234	0x3bf9ccbb	0.0076232827
235	0x3a86c090	0.0010280777
236	0x3d40348a	0.046925105
237	0xbd48b7f0	-0.04900354
238	0x3cc29e76	0.0237572
239	0x3d9ec70f	0.07752811
240	0xbd3c8b66	-0.04603138
241	0xbb0da446	-0.0021612807
242	0x3d94567b	0.07243057
243	0x3d115fed	0.035491873
244	0x3d18a726	0.03726878
245	0xbd5662e6	-0.05234041
246	0xbcec0320	-0.028810084
247	0x3b3ad4ce	0.002850819
248	0x3c6710e4	0.014103148
249	0x3d2ab2d8	0.041674465
250	0x3da79ee7	0.08184605
251	0x3d05d476	0.03267332
252	0x3c91df88	0.017806783
253	0x3da9381d	0.08262656
254	0xbdfb8bd7	-0.12282532
255	0xbc7005db	-0.014649834

conv4.bias f4 [4]
0	0x3d2a8551	0.041631047
1	0x3d664092	0.056213923
2	0x3cfefef1	0.031127425
3	0x3c126586	0.008935338
